…
base_lr: 0.1
display: 1
max_iter: 100000
lr_policy: "fixed"
momentum: 0.9
weight_decay: 0.0005
snapshot: 4000
snapshot_prefix: "fcn"
device_id: 1
iter_size: 1
I0708 00:17:35.055454 13500 solver.cpp:81] Creating training net from train_net file: train.prototxt
I0708 00:17:35.056823 13500 net.cpp:49] Initializing net from parameters: 
name: "FCN32AlexNet"
state {
  phase: TRAIN
}
layer {
  name: "data"
  type: "ROOTData"
  top: "data"
  top: "label"
  root_data_param {
    batch_size: 32
    filler_config: "train_filler.cfg"
    filler_name: "Train"
  }
}
layer {
  name: "conv1"
  type: "Convolution"
  bottom: "data"
  top: "conv1"
  convolution_param {
    num_output: 96
    pad: 100
    kernel_size: 11
    group: 1
    stride: 4
  }
}
layer {
  name: "relu1"
  type: "ReLU"
  bottom: "conv1"
  top: "conv1"
}
layer {
  name: "pool1"
  type: "Pooling"
  bottom: "conv1"
  top: "pool1"
  pooling_param {
    pool: MAX
    kernel_size: 3
    stride: 2
  }
}
layer {
  name: "norm1"
  type: "LRN"
  bottom: "pool1"
  top: "norm1"
  lrn_param {
    local_size: 5
    alpha: 0.0001
    beta: 0.75
  }
}
layer {
  name: "conv2"
  type: "Convolution"
  bottom: "norm1"
  top: "conv2"
  convolution_param {
    num_output: 256
    pad: 2
    kernel_size: 5
    group: 2
    stride: 1
  }
}
layer {
  name: "relu2"
  type: "ReLU"
  bottom: "conv2"
  top: "conv2"
}
layer {
  name: "pool2"
  type: "Pooling"
  bottom: "conv2"
  top: "pool2"
  pooling_param {
    pool: MAX
    kernel_size: 3
    stride: 2
  }
}
layer {
  name: "norm2"
  type: "LRN"
  bottom: "pool2"
  top: "norm2"
  lrn_param {
    local_size: 5
    alpha: 0.0001
    beta: 0.75
  }
}
layer {
  name: "conv3"
  type: "Convolution"
  bottom: "norm2"
  top: "conv3"
  convolution_param {
    num_output: 384
    pad: 1
    kernel_size: 3
    group: 1
    stride: 1
  }
}
layer {
  name: "relu3"
  type: "ReLU"
  bottom: "conv3"
  top: "conv3"
}
layer {
  name: "conv4"
  type: "Convolution"
  bottom: "conv3"
  top: "conv4"
  convolution_param {
    num_output: 384
    pad: 1
    kernel_size: 3
    group: 2
    stride: 1
  }
}
layer {
  name: "relu4"
  type: "ReLU"
  bottom: "conv4"
  top: "conv4"
}
layer {
  name: "conv5"
  type: "Convolution"
  bottom: "conv4"
  top: "conv5"
  convolution_param {
    num_output: 256
    pad: 1
    kernel_size: 3
    group: 2
    stride: 1
  }
}
layer {
  name: "relu5"
  type: "ReLU"
  bottom: "conv5"
  top: "conv5"
}
layer {
  name: "pool5"
  type: "Pooling"
  bottom: "conv5"
  top: "pool5"
  pooling_param {
    pool: MAX
    kernel_size: 3
    stride: 2
  }
}
layer {
  name: "fc6_"
  type: "Convolution"
  bottom: "pool5"
  top: "fc6_"
  convolution_param {
    num_output: 4096
    pad: 0
    kernel_size: 6
    group: 1
    stride: 1
    weight_filler {
      type: "xavier"
    }
  }
}
layer {
  name: "relu6_"
  type: "ReLU"
  bottom: "fc6_"
  top: "fc6_"
}
layer {
  name: "drop6_"
  type: "Dropout"
  bottom: "fc6_"
  top: "fc6_"
  dropout_param {
    dropout_ratio: 0.5
  }
}
layer {
  name: "fc7_"
  type: "Convolution"
  bottom: "fc6_"
  top: "fc7_"
  convolution_param {
    num_output: 4096
    pad: 0
    kernel_size: 1
    group: 1
    stride: 1
    weight_filler {
      type: "xavier"
    }
  }
}
layer {
  name: "relu7_"
  type: "ReLU"
  bottom: "fc7_"
  top: "fc7_"
}
layer {
  name: "drop7_"
  type: "Dropout"
  bottom: "fc7_"
  top: "fc7_"
  dropout_param {
    dropout_ratio: 0.5
  }
}
layer {
  name: "score_fr"
  type: "Convolution"
  bottom: "fc7_"
  top: "score_fr"
  param {
    lr_mult: 1
    decay_mult: 1
  }
  param {
    lr_mult: 2
    decay_mult: 0
  }
  convolution_param {
    num_output: 6
    pad: 0
    kernel_size: 1
    weight_filler {
      type: "xavier"
    }
  }
}
layer {
  name: "upscore2"
  type: "Deconvolution"
  bottom: "score_fr"
  top: "upscore2"
  param {
    lr_mult: 1
    decay_mult: 1
  }
  convolution_param {
    num_output: 6
    bias_term: false
    kernel_size: 4
    stride: 2
    weight_filler {
      type: "xavier"
    }
  }
}
layer {
  name: "score_pool2"
  type: "Convolution"
  bottom: "norm2"
  top: "score_pool2"
  param {
    lr_mult: 1
    decay_mult: 1
  }
  param {
    lr_mult: 2
    decay_mult: 0
  }
  convolution_param {
    num_output: 6
    pad: 0
    kernel_size: 1
    weight_filler {
      type: "xavier"
    }
  }
}
layer {
  name: "score_pool2c"
  type: "Crop"
  bottom: "score_pool2"
  bottom: "upscore2"
  top: "score_pool2c"
  crop_param {
    axis: 2
    offset: 5
  }
}
layer {
  name: "fuse_pool2"
  type: "Eltwise"
  bottom: "upscore2"
  bottom: "score_pool2c"
  top: "fuse_pool2"
  eltwise_param {
    operation: SUM
  }
}
layer {
  name: "upscore_pool2"
  type: "Deconvolution"
  bottom: "fuse_pool2"
  top: "upscore_pool2"
  param {
    lr_mult: 1
  }
  convolution_param {
    num_output: 6
    bias_term: false
    kernel_size: 4
    stride: 2
    weight_filler {
      type: "xavier"
    }
  }
}
layer {
  name: "score_pool1"
  type: "Convolution"
  bottom: "norm1"
  top: "score_pool1"
  param {
    lr_mult: 1
    decay_mult: 1
  }
  param {
    lr_mult: 2
    decay_mult: 0
  }
  convolution_param {
    num_output: 6
    pad: 0
    kernel_size: 1
    weight_filler {
      type: "xavier"
    }
  }
}
layer {
  name: "score_pool1c"
  type: "Crop"
  bottom: "score_pool1"
  bottom: "upscore_pool2"
  top: "score_pool1c"
  crop_param {
    axis: 2
    offset: 9
  }
}
layer {
  name: "fuse_pool1"
  type: "Eltwise"
  bottom: "upscore_pool2"
  bottom: "score_pool1c"
  top: "fuse_pool1"
  eltwise_param {
    operation: SUM
  }
}
layer {
  name: "upscore8"
  type: "Deconvolution"
  bottom: "fuse_pool1"
  top: "upscore8"
  param {
    lr_mult: 1
  }
  convolution_param {
    num_output: 6
    bias_term: false
    kernel_size: 16
    stride: 8
    weight_filler {
      type: "xavier"
    }
  }
}
layer {
  name: "score"
  type: "Crop"
  bottom: "upscore8"
  bottom: "data"
  top: "score"
  crop_param {
    axis: 2
    offset: 31
  }
}
layer {
  name: "loss_"
  type: "SoftmaxWithLoss"
  bottom: "score"
  bottom: "label"
  top: "loss_"
  loss_param {
    normalize: true
  }
}
I0708 00:17:35.057577 13500 layer_factory.hpp:77] Creating layer data
I0708 00:17:35.057633 13500 net.cpp:91] Creating Layer data
I0708 00:17:35.057652 13500 net.cpp:399] data -> data
I0708 00:17:35.057803 13500 net.cpp:399] data -> label
I0708 00:17:36.465953 13500 heproot.cpp:19] Queuing data... (1 sec.)
I0708 00:17:37.844308 13500 heproot.cpp:19] Queuing data... (2 sec.)
I0708 00:17:39.113862 13500 heproot.cpp:19] Queuing data... (3 sec.)
I0708 00:17:39.336760 13500 net.cpp:141] Setting up data
I0708 00:17:39.336827 13500 net.cpp:148] Top shape: 32 1 576 576 (10616832)
I0708 00:17:39.336836 13500 net.cpp:148] Top shape: 32 1 576 576 (10616832)
I0708 00:17:39.336841 13500 net.cpp:156] Memory required for data: 84934656
I0708 00:17:39.336871 13500 layer_factory.hpp:77] Creating layer data_data_0_split
I0708 00:17:39.336923 13500 net.cpp:91] Creating Layer data_data_0_split
I0708 00:17:39.336943 13500 net.cpp:425] data_data_0_split <- data
I0708 00:17:39.336990 13500 net.cpp:399] data_data_0_split -> data_data_0_split_0
I0708 00:17:39.337028 13500 net.cpp:399] data_data_0_split -> data_data_0_split_1
I0708 00:17:39.337086 13500 net.cpp:141] Setting up data_data_0_split
I0708 00:17:39.337098 13500 net.cpp:148] Top shape: 32 1 576 576 (10616832)
I0708 00:17:39.337110 13500 net.cpp:148] Top shape: 32 1 576 576 (10616832)
I0708 00:17:39.337115 13500 net.cpp:156] Memory required for data: 169869312
I0708 00:17:39.337121 13500 layer_factory.hpp:77] Creating layer conv1
I0708 00:17:39.337167 13500 net.cpp:91] Creating Layer conv1
I0708 00:17:39.337175 13500 net.cpp:425] conv1 <- data_data_0_split_0
I0708 00:17:39.337194 13500 net.cpp:399] conv1 -> conv1
I0708 00:17:40.071060 13500 cudnn_conv_layer.cpp:194] Reallocating workspace storage: 1452
I0708 00:17:40.071199 13500 net.cpp:141] Setting up conv1
I0708 00:17:40.071220 13500 net.cpp:148] Top shape: 32 96 192 192 (113246208)
I0708 00:17:40.071230 13500 net.cpp:156] Memory required for data: 622854144
I0708 00:17:40.071319 13500 layer_factory.hpp:77] Creating layer relu1
I0708 00:17:40.071355 13500 net.cpp:91] Creating Layer relu1
I0708 00:17:40.071365 13500 net.cpp:425] relu1 <- conv1
I0708 00:17:40.071385 13500 net.cpp:386] relu1 -> conv1 (in-place)
I0708 00:17:40.071636 13500 net.cpp:141] Setting up relu1
I0708 00:17:40.071647 13500 net.cpp:148] Top shape: 32 96 192 192 (113246208)
I0708 00:17:40.071650 13500 net.cpp:156] Memory required for data: 1075838976
I0708 00:17:40.071657 13500 layer_factory.hpp:77] Creating layer pool1
I0708 00:17:40.071683 13500 net.cpp:91] Creating Layer pool1
I0708 00:17:40.071691 13500 net.cpp:425] pool1 <- conv1
I0708 00:17:40.071707 13500 net.cpp:399] pool1 -> pool1
I0708 00:17:40.071775 13500 net.cpp:141] Setting up pool1
I0708 00:17:40.071785 13500 net.cpp:148] Top shape: 32 96 96 96 (28311552)
I0708 00:17:40.071789 13500 net.cpp:156] Memory required for data: 1189085184
I0708 00:17:40.071794 13500 layer_factory.hpp:77] Creating layer norm1
I0708 00:17:40.071817 13500 net.cpp:91] Creating Layer norm1
I0708 00:17:40.071823 13500 net.cpp:425] norm1 <- pool1
I0708 00:17:40.071836 13500 net.cpp:399] norm1 -> norm1
I0708 00:17:40.072005 13500 net.cpp:141] Setting up norm1
I0708 00:17:40.072016 13500 net.cpp:148] Top shape: 32 96 96 96 (28311552)
I0708 00:17:40.072018 13500 net.cpp:156] Memory required for data: 1302331392
I0708 00:17:40.072023 13500 layer_factory.hpp:77] Creating layer norm1_norm1_0_split
I0708 00:17:40.072036 13500 net.cpp:91] Creating Layer norm1_norm1_0_split
I0708 00:17:40.072041 13500 net.cpp:425] norm1_norm1_0_split <- norm1
I0708 00:17:40.072053 13500 net.cpp:399] norm1_norm1_0_split -> norm1_norm1_0_split_0
I0708 00:17:40.072067 13500 net.cpp:399] norm1_norm1_0_split -> norm1_norm1_0_split_1
I0708 00:17:40.072108 13500 net.cpp:141] Setting up norm1_norm1_0_split
I0708 00:17:40.072118 13500 net.cpp:148] Top shape: 32 96 96 96 (28311552)
I0708 00:17:40.072123 13500 net.cpp:148] Top shape: 32 96 96 96 (28311552)
I0708 00:17:40.072124 13500 net.cpp:156] Memory required for data: 1528823808
I0708 00:17:40.072129 13500 layer_factory.hpp:77] Creating layer conv2
I0708 00:17:40.072149 13500 net.cpp:91] Creating Layer conv2
I0708 00:17:40.072154 13500 net.cpp:425] conv2 <- norm1_norm1_0_split_0
I0708 00:17:40.072167 13500 net.cpp:399] conv2 -> conv2
I0708 00:17:40.074497 13500 cudnn_conv_layer.cpp:194] Reallocating workspace storage: 344880
I0708 00:17:40.074625 13500 net.cpp:141] Setting up conv2
I0708 00:17:40.074642 13500 net.cpp:148] Top shape: 32 256 96 96 (75497472)
I0708 00:17:40.074646 13500 net.cpp:156] Memory required for data: 1830813696
I0708 00:17:40.074689 13500 layer_factory.hpp:77] Creating layer relu2
I0708 00:17:40.074725 13500 net.cpp:91] Creating Layer relu2
I0708 00:17:40.074736 13500 net.cpp:425] relu2 <- conv2
I0708 00:17:40.074755 13500 net.cpp:386] relu2 -> conv2 (in-place)
I0708 00:17:40.074900 13500 net.cpp:141] Setting up relu2
I0708 00:17:40.074910 13500 net.cpp:148] Top shape: 32 256 96 96 (75497472)
I0708 00:17:40.074913 13500 net.cpp:156] Memory required for data: 2132803584
I0708 00:17:40.074919 13500 layer_factory.hpp:77] Creating layer pool2
I0708 00:17:40.074935 13500 net.cpp:91] Creating Layer pool2
I0708 00:17:40.074941 13500 net.cpp:425] pool2 <- conv2
I0708 00:17:40.074955 13500 net.cpp:399] pool2 -> pool2
I0708 00:17:40.075009 13500 net.cpp:141] Setting up pool2
I0708 00:17:40.075018 13500 net.cpp:148] Top shape: 32 256 48 48 (18874368)
I0708 00:17:40.075021 13500 net.cpp:156] Memory required for data: 2208301056
I0708 00:17:40.075026 13500 layer_factory.hpp:77] Creating layer norm2
I0708 00:17:40.075043 13500 net.cpp:91] Creating Layer norm2
I0708 00:17:40.075049 13500 net.cpp:425] norm2 <- pool2
I0708 00:17:40.075062 13500 net.cpp:399] norm2 -> norm2
I0708 00:17:40.075323 13500 net.cpp:141] Setting up norm2
I0708 00:17:40.075337 13500 net.cpp:148] Top shape: 32 256 48 48 (18874368)
I0708 00:17:40.075341 13500 net.cpp:156] Memory required for data: 2283798528
I0708 00:17:40.075356 13500 layer_factory.hpp:77] Creating layer norm2_norm2_0_split
I0708 00:17:40.075378 13500 net.cpp:91] Creating Layer norm2_norm2_0_split
I0708 00:17:40.075386 13500 net.cpp:425] norm2_norm2_0_split <- norm2
I0708 00:17:40.075398 13500 net.cpp:399] norm2_norm2_0_split -> norm2_norm2_0_split_0
I0708 00:17:40.075413 13500 net.cpp:399] norm2_norm2_0_split -> norm2_norm2_0_split_1
I0708 00:17:40.075453 13500 net.cpp:141] Setting up norm2_norm2_0_split
I0708 00:17:40.075461 13500 net.cpp:148] Top shape: 32 256 48 48 (18874368)
I0708 00:17:40.075465 13500 net.cpp:148] Top shape: 32 256 48 48 (18874368)
I0708 00:17:40.075469 13500 net.cpp:156] Memory required for data: 2434793472
I0708 00:17:40.075472 13500 layer_factory.hpp:77] Creating layer conv3
I0708 00:17:40.075492 13500 net.cpp:91] Creating Layer conv3
I0708 00:17:40.075498 13500 net.cpp:425] conv3 <- norm2_norm2_0_split_0
I0708 00:17:40.075511 13500 net.cpp:399] conv3 -> conv3
I0708 00:17:40.079658 13500 cudnn_conv_layer.cpp:194] Reallocating workspace storage: 48024
I0708 00:17:40.079704 13500 net.cpp:141] Setting up conv3
I0708 00:17:40.079720 13500 net.cpp:148] Top shape: 32 384 48 48 (28311552)
I0708 00:17:40.079723 13500 net.cpp:156] Memory required for data: 2548039680
I0708 00:17:40.079772 13500 layer_factory.hpp:77] Creating layer relu3
I0708 00:17:40.079802 13500 net.cpp:91] Creating Layer relu3
I0708 00:17:40.079813 13500 net.cpp:425] relu3 <- conv3
I0708 00:17:40.079831 13500 net.cpp:386] relu3 -> conv3 (in-place)
I0708 00:17:40.079982 13500 net.cpp:141] Setting up relu3
I0708 00:17:40.079990 13500 net.cpp:148] Top shape: 32 384 48 48 (28311552)
I0708 00:17:40.079993 13500 net.cpp:156] Memory required for data: 2661285888
I0708 00:17:40.079998 13500 layer_factory.hpp:77] Creating layer conv4
I0708 00:17:40.080021 13500 net.cpp:91] Creating Layer conv4
I0708 00:17:40.080027 13500 net.cpp:425] conv4 <- conv3
I0708 00:17:40.080041 13500 net.cpp:399] conv4 -> conv4
I0708 00:17:40.083372 13500 cudnn_conv_layer.cpp:194] Reallocating workspace storage: 96048
I0708 00:17:40.083529 13500 net.cpp:141] Setting up conv4
I0708 00:17:40.083549 13500 net.cpp:148] Top shape: 32 384 48 48 (28311552)
I0708 00:17:40.083551 13500 net.cpp:156] Memory required for data: 2774532096
I0708 00:17:40.083580 13500 layer_factory.hpp:77] Creating layer relu4
I0708 00:17:40.083606 13500 net.cpp:91] Creating Layer relu4
I0708 00:17:40.083617 13500 net.cpp:425] relu4 <- conv4
I0708 00:17:40.083641 13500 net.cpp:386] relu4 -> conv4 (in-place)
I0708 00:17:40.083799 13500 net.cpp:141] Setting up relu4
I0708 00:17:40.083808 13500 net.cpp:148] Top shape: 32 384 48 48 (28311552)
I0708 00:17:40.083811 13500 net.cpp:156] Memory required for data: 2887778304
I0708 00:17:40.083817 13500 layer_factory.hpp:77] Creating layer conv5
I0708 00:17:40.083848 13500 net.cpp:91] Creating Layer conv5
I0708 00:17:40.083856 13500 net.cpp:425] conv5 <- conv4
I0708 00:17:40.083873 13500 net.cpp:399] conv5 -> conv5
I0708 00:17:40.086844 13500 cudnn_conv_layer.cpp:194] Reallocating workspace storage: 96048
I0708 00:17:40.086894 13500 net.cpp:141] Setting up conv5
I0708 00:17:40.086908 13500 net.cpp:148] Top shape: 32 256 48 48 (18874368)
I0708 00:17:40.086911 13500 net.cpp:156] Memory required for data: 2963275776
I0708 00:17:40.086961 13500 layer_factory.hpp:77] Creating layer relu5
I0708 00:17:40.086988 13500 net.cpp:91] Creating Layer relu5
I0708 00:17:40.086997 13500 net.cpp:425] relu5 <- conv5
I0708 00:17:40.087018 13500 net.cpp:386] relu5 -> conv5 (in-place)
I0708 00:17:40.087174 13500 net.cpp:141] Setting up relu5
I0708 00:17:40.087183 13500 net.cpp:148] Top shape: 32 256 48 48 (18874368)
I0708 00:17:40.087187 13500 net.cpp:156] Memory required for data: 3038773248
I0708 00:17:40.087191 13500 layer_factory.hpp:77] Creating layer pool5
I0708 00:17:40.087209 13500 net.cpp:91] Creating Layer pool5
I0708 00:17:40.087216 13500 net.cpp:425] pool5 <- conv5
I0708 00:17:40.087230 13500 net.cpp:399] pool5 -> pool5
I0708 00:17:40.087291 13500 net.cpp:141] Setting up pool5
I0708 00:17:40.087307 13500 net.cpp:148] Top shape: 32 256 24 24 (4718592)
I0708 00:17:40.087321 13500 net.cpp:156] Memory required for data: 3057647616
I0708 00:17:40.087326 13500 layer_factory.hpp:77] Creating layer fc6_
I0708 00:17:40.087353 13500 net.cpp:91] Creating Layer fc6_
I0708 00:17:40.087360 13500 net.cpp:425] fc6_ <- pool5
I0708 00:17:40.087375 13500 net.cpp:399] fc6_ -> fc6_
I0708 00:17:42.594447 13500 cudnn_conv_layer.cpp:194] Reallocating workspace storage: 46836
I0708 00:17:42.594502 13500 net.cpp:141] Setting up fc6_
I0708 00:17:42.594526 13500 net.cpp:148] Top shape: 32 4096 19 19 (47316992)
I0708 00:17:42.594530 13500 net.cpp:156] Memory required for data: 3246915584
I0708 00:17:42.594568 13500 layer_factory.hpp:77] Creating layer relu6_
I0708 00:17:42.594605 13500 net.cpp:91] Creating Layer relu6_
I0708 00:17:42.594619 13500 net.cpp:425] relu6_ <- fc6_
I0708 00:17:42.594651 13500 net.cpp:386] relu6_ -> fc6_ (in-place)
I0708 00:17:42.595554 13500 net.cpp:141] Setting up relu6_
I0708 00:17:42.595571 13500 net.cpp:148] Top shape: 32 4096 19 19 (47316992)
I0708 00:17:42.595576 13500 net.cpp:156] Memory required for data: 3436183552
I0708 00:17:42.595585 13500 layer_factory.hpp:77] Creating layer drop6_
I0708 00:17:42.595618 13500 net.cpp:91] Creating Layer drop6_
I0708 00:17:42.595628 13500 net.cpp:425] drop6_ <- fc6_
I0708 00:17:42.595650 13500 net.cpp:386] drop6_ -> fc6_ (in-place)
I0708 00:17:42.595707 13500 net.cpp:141] Setting up drop6_
I0708 00:17:42.595717 13500 net.cpp:148] Top shape: 32 4096 19 19 (47316992)
I0708 00:17:42.595721 13500 net.cpp:156] Memory required for data: 3625451520
I0708 00:17:42.595731 13500 layer_factory.hpp:77] Creating layer fc7_
I0708 00:17:42.595765 13500 net.cpp:91] Creating Layer fc7_
I0708 00:17:42.595773 13500 net.cpp:425] fc7_ <- fc6_
I0708 00:17:42.595793 13500 net.cpp:399] fc7_ -> fc7_
I0708 00:17:43.797024 13500 cudnn_conv_layer.cpp:194] Reallocating workspace storage: 19500
I0708 00:17:43.797085 13500 net.cpp:141] Setting up fc7_
I0708 00:17:43.797106 13500 net.cpp:148] Top shape: 32 4096 19 19 (47316992)
I0708 00:17:43.797111 13500 net.cpp:156] Memory required for data: 3814719488
I0708 00:17:43.797150 13500 layer_factory.hpp:77] Creating layer relu7_
I0708 00:17:43.797189 13500 net.cpp:91] Creating Layer relu7_
I0708 00:17:43.797205 13500 net.cpp:425] relu7_ <- fc7_
I0708 00:17:43.797236 13500 net.cpp:386] relu7_ -> fc7_ (in-place)
I0708 00:17:43.797973 13500 net.cpp:141] Setting up relu7_
I0708 00:17:43.797987 13500 net.cpp:148] Top shape: 32 4096 19 19 (47316992)
I0708 00:17:43.797993 13500 net.cpp:156] Memory required for data: 4003987456
I0708 00:17:43.798001 13500 layer_factory.hpp:77] Creating layer drop7_
I0708 00:17:43.798022 13500 net.cpp:91] Creating Layer drop7_
I0708 00:17:43.798029 13500 net.cpp:425] drop7_ <- fc7_
I0708 00:17:43.798048 13500 net.cpp:386] drop7_ -> fc7_ (in-place)
I0708 00:17:43.798099 13500 net.cpp:141] Setting up drop7_
I0708 00:17:43.798108 13500 net.cpp:148] Top shape: 32 4096 19 19 (47316992)
I0708 00:17:43.798113 13500 net.cpp:156] Memory required for data: 4193255424
I0708 00:17:43.798120 13500 layer_factory.hpp:77] Creating layer score_fr
I0708 00:17:43.798156 13500 net.cpp:91] Creating Layer score_fr
I0708 00:17:43.798166 13500 net.cpp:425] score_fr <- fc7_
I0708 00:17:43.798189 13500 net.cpp:399] score_fr -> score_fr
I0708 00:17:43.802633 13500 cudnn_conv_layer.cpp:194] Reallocating workspace storage: 7212
I0708 00:17:43.802803 13500 net.cpp:141] Setting up score_fr
I0708 00:17:43.802830 13500 net.cpp:148] Top shape: 32 6 19 19 (69312)
I0708 00:17:43.802839 13500 net.cpp:156] Memory required for data: 4193532672
I0708 00:17:43.802883 13500 layer_factory.hpp:77] Creating layer upscore2
I0708 00:17:43.802952 13500 net.cpp:91] Creating Layer upscore2
I0708 00:17:43.802971 13500 net.cpp:425] upscore2 <- score_fr
I0708 00:17:43.803020 13500 net.cpp:399] upscore2 -> upscore2
I0708 00:17:43.803444 13500 net.cpp:141] Setting up upscore2
I0708 00:17:43.803459 13500 net.cpp:148] Top shape: 32 6 40 40 (307200)
I0708 00:17:43.803465 13500 net.cpp:156] Memory required for data: 4194761472
I0708 00:17:43.803519 13500 layer_factory.hpp:77] Creating layer upscore2_upscore2_0_split
I0708 00:17:43.803540 13500 net.cpp:91] Creating Layer upscore2_upscore2_0_split
I0708 00:17:43.803551 13500 net.cpp:425] upscore2_upscore2_0_split <- upscore2
I0708 00:17:43.803573 13500 net.cpp:399] upscore2_upscore2_0_split -> upscore2_upscore2_0_split_0
I0708 00:17:43.803598 13500 net.cpp:399] upscore2_upscore2_0_split -> upscore2_upscore2_0_split_1
I0708 00:17:43.803663 13500 net.cpp:141] Setting up upscore2_upscore2_0_split
I0708 00:17:43.803673 13500 net.cpp:148] Top shape: 32 6 40 40 (307200)
I0708 00:17:43.803680 13500 net.cpp:148] Top shape: 32 6 40 40 (307200)
I0708 00:17:43.803684 13500 net.cpp:156] Memory required for data: 4197219072
I0708 00:17:43.803690 13500 layer_factory.hpp:77] Creating layer score_pool2
I0708 00:17:43.803719 13500 net.cpp:91] Creating Layer score_pool2
I0708 00:17:43.803728 13500 net.cpp:425] score_pool2 <- norm2_norm2_0_split_1
I0708 00:17:43.803750 13500 net.cpp:399] score_pool2 -> score_pool2
I0708 00:17:43.808158 13500 cudnn_conv_layer.cpp:194] Reallocating workspace storage: 48024
I0708 00:17:43.808214 13500 net.cpp:141] Setting up score_pool2
I0708 00:17:43.808233 13500 net.cpp:148] Top shape: 32 6 48 48 (442368)
I0708 00:17:43.808238 13500 net.cpp:156] Memory required for data: 4198988544
I0708 00:17:43.808276 13500 layer_factory.hpp:77] Creating layer score_pool2c
I0708 00:17:43.808321 13500 net.cpp:91] Creating Layer score_pool2c
I0708 00:17:43.808336 13500 net.cpp:425] score_pool2c <- score_pool2
I0708 00:17:43.808363 13500 net.cpp:425] score_pool2c <- upscore2_upscore2_0_split_0
I0708 00:17:43.808382 13500 net.cpp:399] score_pool2c -> score_pool2c
I0708 00:17:43.808460 13500 net.cpp:141] Setting up score_pool2c
I0708 00:17:43.808472 13500 net.cpp:148] Top shape: 32 6 40 40 (307200)
I0708 00:17:43.808476 13500 net.cpp:156] Memory required for data: 4200217344
I0708 00:17:43.808482 13500 layer_factory.hpp:77] Creating layer fuse_pool2
I0708 00:17:43.808509 13500 net.cpp:91] Creating Layer fuse_pool2
I0708 00:17:43.808518 13500 net.cpp:425] fuse_pool2 <- upscore2_upscore2_0_split_1
I0708 00:17:43.808531 13500 net.cpp:425] fuse_pool2 <- score_pool2c
I0708 00:17:43.808557 13500 net.cpp:399] fuse_pool2 -> fuse_pool2
I0708 00:17:43.808629 13500 net.cpp:141] Setting up fuse_pool2
I0708 00:17:43.808640 13500 net.cpp:148] Top shape: 32 6 40 40 (307200)
I0708 00:17:43.808645 13500 net.cpp:156] Memory required for data: 4201446144
I0708 00:17:43.808651 13500 layer_factory.hpp:77] Creating layer upscore_pool2
I0708 00:17:43.808678 13500 net.cpp:91] Creating Layer upscore_pool2
I0708 00:17:43.808686 13500 net.cpp:425] upscore_pool2 <- fuse_pool2
I0708 00:17:43.808707 13500 net.cpp:399] upscore_pool2 -> upscore_pool2
I0708 00:17:43.809031 13500 net.cpp:141] Setting up upscore_pool2
I0708 00:17:43.809044 13500 net.cpp:148] Top shape: 32 6 82 82 (1291008)
I0708 00:17:43.809048 13500 net.cpp:156] Memory required for data: 4206610176
I0708 00:17:43.809062 13500 layer_factory.hpp:77] Creating layer upscore_pool2_upscore_pool2_0_split
I0708 00:17:43.809087 13500 net.cpp:91] Creating Layer upscore_pool2_upscore_pool2_0_split
I0708 00:17:43.809094 13500 net.cpp:425] upscore_pool2_upscore_pool2_0_split <- upscore_pool2
I0708 00:17:43.809113 13500 net.cpp:399] upscore_pool2_upscore_pool2_0_split -> upscore_pool2_upscore_pool2_0_split_0
I0708 00:17:43.809132 13500 net.cpp:399] upscore_pool2_upscore_pool2_0_split -> upscore_pool2_upscore_pool2_0_split_1
I0708 00:17:43.809185 13500 net.cpp:141] Setting up upscore_pool2_upscore_pool2_0_split
I0708 00:17:43.809195 13500 net.cpp:148] Top shape: 32 6 82 82 (1291008)
I0708 00:17:43.809201 13500 net.cpp:148] Top shape: 32 6 82 82 (1291008)
I0708 00:17:43.809206 13500 net.cpp:156] Memory required for data: 4216938240
I0708 00:17:43.809211 13500 layer_factory.hpp:77] Creating layer score_pool1
I0708 00:17:43.809238 13500 net.cpp:91] Creating Layer score_pool1
I0708 00:17:43.809247 13500 net.cpp:425] score_pool1 <- norm1_norm1_0_split_1
I0708 00:17:43.809276 13500 net.cpp:399] score_pool1 -> score_pool1
I0708 00:17:43.811132 13500 cudnn_conv_layer.cpp:194] Reallocating workspace storage: 172440
I0708 00:17:43.811175 13500 net.cpp:141] Setting up score_pool1
I0708 00:17:43.811188 13500 net.cpp:148] Top shape: 32 6 96 96 (1769472)
I0708 00:17:43.811193 13500 net.cpp:156] Memory required for data: 4224016128
I0708 00:17:43.811214 13500 layer_factory.hpp:77] Creating layer score_pool1c
I0708 00:17:43.811239 13500 net.cpp:91] Creating Layer score_pool1c
I0708 00:17:43.811249 13500 net.cpp:425] score_pool1c <- score_pool1
I0708 00:17:43.811264 13500 net.cpp:425] score_pool1c <- upscore_pool2_upscore_pool2_0_split_0
I0708 00:17:43.811278 13500 net.cpp:399] score_pool1c -> score_pool1c
I0708 00:17:43.811333 13500 net.cpp:141] Setting up score_pool1c
I0708 00:17:43.811345 13500 net.cpp:148] Top shape: 32 6 82 82 (1291008)
I0708 00:17:43.811349 13500 net.cpp:156] Memory required for data: 4229180160
I0708 00:17:43.811357 13500 layer_factory.hpp:77] Creating layer fuse_pool1
I0708 00:17:43.811373 13500 net.cpp:91] Creating Layer fuse_pool1
I0708 00:17:43.811381 13500 net.cpp:425] fuse_pool1 <- upscore_pool2_upscore_pool2_0_split_1
I0708 00:17:43.811395 13500 net.cpp:425] fuse_pool1 <- score_pool1c
I0708 00:17:43.811411 13500 net.cpp:399] fuse_pool1 -> fuse_pool1
I0708 00:17:43.811468 13500 net.cpp:141] Setting up fuse_pool1
I0708 00:17:43.811481 13500 net.cpp:148] Top shape: 32 6 82 82 (1291008)
I0708 00:17:43.811486 13500 net.cpp:156] Memory required for data: 4234344192
I0708 00:17:43.811492 13500 layer_factory.hpp:77] Creating layer upscore8
I0708 00:17:43.811514 13500 net.cpp:91] Creating Layer upscore8
I0708 00:17:43.811522 13500 net.cpp:425] upscore8 <- fuse_pool1
I0708 00:17:43.811542 13500 net.cpp:399] upscore8 -> upscore8
I0708 00:17:43.812407 13500 net.cpp:141] Setting up upscore8
I0708 00:17:43.812420 13500 net.cpp:148] Top shape: 32 6 664 664 (84652032)
I0708 00:17:43.812424 13500 net.cpp:156] Memory required for data: 4572952320
I0708 00:17:43.812438 13500 layer_factory.hpp:77] Creating layer score
I0708 00:17:43.812453 13500 net.cpp:91] Creating Layer score
I0708 00:17:43.812461 13500 net.cpp:425] score <- upscore8
I0708 00:17:43.812474 13500 net.cpp:425] score <- data_data_0_split_1
I0708 00:17:43.812490 13500 net.cpp:399] score -> score
I0708 00:17:43.812537 13500 net.cpp:141] Setting up score
I0708 00:17:43.812567 13500 net.cpp:148] Top shape: 32 6 576 576 (63700992)
I0708 00:17:43.812572 13500 net.cpp:156] Memory required for data: 4827756288
I0708 00:17:43.812578 13500 layer_factory.hpp:77] Creating layer loss_
I0708 00:17:43.812603 13500 net.cpp:91] Creating Layer loss_
I0708 00:17:43.812611 13500 net.cpp:425] loss_ <- score
I0708 00:17:43.812624 13500 net.cpp:425] loss_ <- label
I0708 00:17:43.812646 13500 net.cpp:399] loss_ -> loss_
…
