…
base_lr: 0.1
display: 1
max_iter: 100000
lr_policy: "fixed"
momentum: 0.9
weight_decay: 0.0005
snapshot: 4000
snapshot_prefix: "fcn"
device_id: 3
iter_size: 1
I0707 09:44:19.727268 32633 solver.cpp:81] Creating training net from train_net file: train.prototxt
I0707 09:44:19.728281 32633 net.cpp:49] Initializing net from parameters: 
name: "FCN32AlexNet"
state {
  phase: TRAIN
}
layer {
  name: "data"
  type: "ROOTData"
  top: "data"
  top: "label"
  root_data_param {
    batch_size: 32
    filler_config: "train_filler.cfg"
    filler_name: "Train"
  }
}
layer {
  name: "conv1"
  type: "Convolution"
  bottom: "data"
  top: "conv1"
  convolution_param {
    num_output: 96
    pad: 100
    kernel_size: 11
    group: 1
    stride: 4
  }
}
layer {
  name: "relu1"
  type: "ReLU"
  bottom: "conv1"
  top: "conv1"
}
layer {
  name: "pool1"
  type: "Pooling"
  bottom: "conv1"
  top: "pool1"
  pooling_param {
    pool: MAX
    kernel_size: 3
    stride: 2
  }
}
layer {
  name: "norm1"
  type: "LRN"
  bottom: "pool1"
  top: "norm1"
  lrn_param {
    local_size: 5
    alpha: 0.0001
    beta: 0.75
  }
}
layer {
  name: "conv2"
  type: "Convolution"
  bottom: "norm1"
  top: "conv2"
  convolution_param {
    num_output: 256
    pad: 2
    kernel_size: 5
    group: 2
    stride: 1
  }
}
layer {
  name: "relu2"
  type: "ReLU"
  bottom: "conv2"
  top: "conv2"
}
layer {
  name: "pool2"
  type: "Pooling"
  bottom: "conv2"
  top: "pool2"
  pooling_param {
    pool: MAX
    kernel_size: 3
    stride: 2
  }
}
layer {
  name: "norm2"
  type: "LRN"
  bottom: "pool2"
  top: "norm2"
  lrn_param {
    local_size: 5
    alpha: 0.0001
    beta: 0.75
  }
}
layer {
  name: "conv3"
  type: "Convolution"
  bottom: "norm2"
  top: "conv3"
  convolution_param {
    num_output: 384
    pad: 1
    kernel_size: 3
    group: 1
    stride: 1
  }
}
layer {
  name: "relu3"
  type: "ReLU"
  bottom: "conv3"
  top: "conv3"
}
layer {
  name: "pool5"
  type: "Pooling"
  bottom: "conv3"
  top: "pool5"
  pooling_param {
    pool: MAX
    kernel_size: 3
    stride: 2
  }
}
layer {
  name: "fc6_"
  type: "Convolution"
  bottom: "pool5"
  top: "fc6_"
  convolution_param {
    num_output: 4096
    pad: 0
    kernel_size: 6
    group: 1
    stride: 1
    weight_filler {
      type: "xavier"
    }
  }
}
layer {
  name: "relu6_"
  type: "ReLU"
  bottom: "fc6_"
  top: "fc6_"
}
layer {
  name: "drop6_"
  type: "Dropout"
  bottom: "fc6_"
  top: "fc6_"
  dropout_param {
    dropout_ratio: 0.5
  }
}
layer {
  name: "fc7_"
  type: "Convolution"
  bottom: "fc6_"
  top: "fc7_"
  convolution_param {
    num_output: 4096
    pad: 0
    kernel_size: 1
    group: 1
    stride: 1
    weight_filler {
      type: "xavier"
    }
  }
}
layer {
  name: "relu7_"
  type: "ReLU"
  bottom: "fc7_"
  top: "fc7_"
}
layer {
  name: "drop7_"
  type: "Dropout"
  bottom: "fc7_"
  top: "fc7_"
  dropout_param {
    dropout_ratio: 0.5
  }
}
layer {
  name: "score_fr"
  type: "Convolution"
  bottom: "fc7_"
  top: "score_fr"
  param {
    lr_mult: 1
    decay_mult: 1
  }
  param {
    lr_mult: 2
    decay_mult: 0
  }
  convolution_param {
    num_output: 6
    pad: 0
    kernel_size: 1
    weight_filler {
      type: "xavier"
    }
  }
}
layer {
  name: "upscore"
  type: "Deconvolution"
  bottom: "score_fr"
  top: "upscore"
  param {
    lr_mult: 1
    decay_mult: 1
  }
  convolution_param {
    num_output: 6
    bias_term: false
    kernel_size: 63
    stride: 32
    weight_filler {
      type: "xavier"
    }
  }
}
layer {
  name: "score"
  type: "Crop"
  bottom: "upscore"
  bottom: "data"
  top: "score"
  crop_param {
    axis: 2
    offset: 18
  }
}
layer {
  name: "loss_"
  type: "SoftmaxWithLoss"
  bottom: "score"
  bottom: "label"
  top: "loss_"
  loss_param {
    normalize: true
  }
}
I0707 09:44:19.732386 32633 layer_factory.hpp:77] Creating layer data
I0707 09:44:19.732447 32633 net.cpp:91] Creating Layer data
I0707 09:44:19.732477 32633 net.cpp:399] data -> data
I0707 09:44:19.732638 32633 net.cpp:399] data -> label
I0707 09:44:21.020267 32633 heproot.cpp:19] Queuing data... (1 sec.)
I0707 09:44:21.817066 32633 net.cpp:141] Setting up data
I0707 09:44:21.817123 32633 net.cpp:148] Top shape: 32 1 576 576 (10616832)
I0707 09:44:21.817133 32633 net.cpp:148] Top shape: 32 1 576 576 (10616832)
I0707 09:44:21.817137 32633 net.cpp:156] Memory required for data: 84934656
I0707 09:44:21.817162 32633 layer_factory.hpp:77] Creating layer data_data_0_split
I0707 09:44:21.817204 32633 net.cpp:91] Creating Layer data_data_0_split
I0707 09:44:21.817224 32633 net.cpp:425] data_data_0_split <- data
I0707 09:44:21.817263 32633 net.cpp:399] data_data_0_split -> data_data_0_split_0
I0707 09:44:21.817299 32633 net.cpp:399] data_data_0_split -> data_data_0_split_1
I0707 09:44:21.817347 32633 net.cpp:141] Setting up data_data_0_split
I0707 09:44:21.817359 32633 net.cpp:148] Top shape: 32 1 576 576 (10616832)
I0707 09:44:21.817370 32633 net.cpp:148] Top shape: 32 1 576 576 (10616832)
I0707 09:44:21.817378 32633 net.cpp:156] Memory required for data: 169869312
I0707 09:44:21.817385 32633 layer_factory.hpp:77] Creating layer conv1
I0707 09:44:21.817425 32633 net.cpp:91] Creating Layer conv1
I0707 09:44:21.817435 32633 net.cpp:425] conv1 <- data_data_0_split_0
I0707 09:44:21.817452 32633 net.cpp:399] conv1 -> conv1
I0707 09:44:21.940702 32633 cudnn_conv_layer.cpp:194] Reallocating workspace storage: 1452
I0707 09:44:21.940829 32633 net.cpp:141] Setting up conv1
I0707 09:44:21.940851 32633 net.cpp:148] Top shape: 32 96 192 192 (113246208)
I0707 09:44:21.940860 32633 net.cpp:156] Memory required for data: 622854144
I0707 09:44:21.940932 32633 layer_factory.hpp:77] Creating layer relu1
I0707 09:44:21.940968 32633 net.cpp:91] Creating Layer relu1
I0707 09:44:21.940980 32633 net.cpp:425] relu1 <- conv1
I0707 09:44:21.941002 32633 net.cpp:386] relu1 -> conv1 (in-place)
I0707 09:44:21.941243 32633 net.cpp:141] Setting up relu1
I0707 09:44:21.941259 32633 net.cpp:148] Top shape: 32 96 192 192 (113246208)
I0707 09:44:21.941265 32633 net.cpp:156] Memory required for data: 1075838976
I0707 09:44:21.941272 32633 layer_factory.hpp:77] Creating layer pool1
I0707 09:44:21.941299 32633 net.cpp:91] Creating Layer pool1
I0707 09:44:21.941310 32633 net.cpp:425] pool1 <- conv1
I0707 09:44:21.941329 32633 net.cpp:399] pool1 -> pool1
I0707 09:44:21.941393 32633 net.cpp:141] Setting up pool1
I0707 09:44:21.941407 32633 net.cpp:148] Top shape: 32 96 96 96 (28311552)
I0707 09:44:21.941412 32633 net.cpp:156] Memory required for data: 1189085184
I0707 09:44:21.941421 32633 layer_factory.hpp:77] Creating layer norm1
I0707 09:44:21.941447 32633 net.cpp:91] Creating Layer norm1
I0707 09:44:21.941457 32633 net.cpp:425] norm1 <- pool1
I0707 09:44:21.941473 32633 net.cpp:399] norm1 -> norm1
I0707 09:44:21.941635 32633 net.cpp:141] Setting up norm1
I0707 09:44:21.941651 32633 net.cpp:148] Top shape: 32 96 96 96 (28311552)
I0707 09:44:21.941656 32633 net.cpp:156] Memory required for data: 1302331392
I0707 09:44:21.941663 32633 layer_factory.hpp:77] Creating layer conv2
I0707 09:44:21.941687 32633 net.cpp:91] Creating Layer conv2
I0707 09:44:21.941699 32633 net.cpp:425] conv2 <- norm1
I0707 09:44:21.941715 32633 net.cpp:399] conv2 -> conv2
I0707 09:44:21.943948 32633 cudnn_conv_layer.cpp:194] Reallocating workspace storage: 344880
I0707 09:44:21.944058 32633 net.cpp:141] Setting up conv2
I0707 09:44:21.944074 32633 net.cpp:148] Top shape: 32 256 96 96 (75497472)
I0707 09:44:21.944082 32633 net.cpp:156] Memory required for data: 1604321280
I0707 09:44:21.944106 32633 layer_factory.hpp:77] Creating layer relu2
I0707 09:44:21.944123 32633 net.cpp:91] Creating Layer relu2
I0707 09:44:21.944133 32633 net.cpp:425] relu2 <- conv2
I0707 09:44:21.944149 32633 net.cpp:386] relu2 -> conv2 (in-place)
I0707 09:44:21.944295 32633 net.cpp:141] Setting up relu2
I0707 09:44:21.944308 32633 net.cpp:148] Top shape: 32 256 96 96 (75497472)
I0707 09:44:21.944314 32633 net.cpp:156] Memory required for data: 1906311168
I0707 09:44:21.944320 32633 layer_factory.hpp:77] Creating layer pool2
I0707 09:44:21.944360 32633 net.cpp:91] Creating Layer pool2
I0707 09:44:21.944372 32633 net.cpp:425] pool2 <- conv2
I0707 09:44:21.944391 32633 net.cpp:399] pool2 -> pool2
I0707 09:44:21.944454 32633 net.cpp:141] Setting up pool2
I0707 09:44:21.944469 32633 net.cpp:148] Top shape: 32 256 48 48 (18874368)
I0707 09:44:21.944475 32633 net.cpp:156] Memory required for data: 1981808640
I0707 09:44:21.944483 32633 layer_factory.hpp:77] Creating layer norm2
I0707 09:44:21.944499 32633 net.cpp:91] Creating Layer norm2
I0707 09:44:21.944509 32633 net.cpp:425] norm2 <- pool2
I0707 09:44:21.944527 32633 net.cpp:399] norm2 -> norm2
I0707 09:44:21.944803 32633 net.cpp:141] Setting up norm2
I0707 09:44:21.944820 32633 net.cpp:148] Top shape: 32 256 48 48 (18874368)
I0707 09:44:21.944826 32633 net.cpp:156] Memory required for data: 2057306112
I0707 09:44:21.944834 32633 layer_factory.hpp:77] Creating layer conv3
I0707 09:44:21.944855 32633 net.cpp:91] Creating Layer conv3
I0707 09:44:21.944866 32633 net.cpp:425] conv3 <- norm2
I0707 09:44:21.944885 32633 net.cpp:399] conv3 -> conv3
I0707 09:44:21.948856 32633 cudnn_conv_layer.cpp:194] Reallocating workspace storage: 48024
I0707 09:44:21.948884 32633 net.cpp:141] Setting up conv3
I0707 09:44:21.948895 32633 net.cpp:148] Top shape: 32 384 48 48 (28311552)
I0707 09:44:21.948901 32633 net.cpp:156] Memory required for data: 2170552320
I0707 09:44:21.948925 32633 layer_factory.hpp:77] Creating layer relu3
I0707 09:44:21.948945 32633 net.cpp:91] Creating Layer relu3
I0707 09:44:21.948956 32633 net.cpp:425] relu3 <- conv3
I0707 09:44:21.948972 32633 net.cpp:386] relu3 -> conv3 (in-place)
I0707 09:44:21.949126 32633 net.cpp:141] Setting up relu3
I0707 09:44:21.949138 32633 net.cpp:148] Top shape: 32 384 48 48 (28311552)
I0707 09:44:21.949143 32633 net.cpp:156] Memory required for data: 2283798528
I0707 09:44:21.949151 32633 layer_factory.hpp:77] Creating layer pool5
I0707 09:44:21.949167 32633 net.cpp:91] Creating Layer pool5
I0707 09:44:21.949177 32633 net.cpp:425] pool5 <- conv3
I0707 09:44:21.949195 32633 net.cpp:399] pool5 -> pool5
I0707 09:44:21.949252 32633 net.cpp:141] Setting up pool5
I0707 09:44:21.949266 32633 net.cpp:148] Top shape: 32 384 24 24 (7077888)
I0707 09:44:21.949272 32633 net.cpp:156] Memory required for data: 2312110080
I0707 09:44:21.949278 32633 layer_factory.hpp:77] Creating layer fc6_
I0707 09:44:21.949301 32633 net.cpp:91] Creating Layer fc6_
I0707 09:44:21.949311 32633 net.cpp:425] fc6_ <- pool5
I0707 09:44:21.949329 32633 net.cpp:399] fc6_ -> fc6_
I0707 09:44:24.692677 32633 cudnn_conv_layer.cpp:194] Reallocating workspace storage: 60660
I0707 09:44:24.692721 32633 net.cpp:141] Setting up fc6_
I0707 09:44:24.692737 32633 net.cpp:148] Top shape: 32 4096 19 19 (47316992)
I0707 09:44:24.692744 32633 net.cpp:156] Memory required for data: 2501378048
I0707 09:44:24.692770 32633 layer_factory.hpp:77] Creating layer relu6_
I0707 09:44:24.692803 32633 net.cpp:91] Creating Layer relu6_
I0707 09:44:24.692816 32633 net.cpp:425] relu6_ <- fc6_
I0707 09:44:24.692843 32633 net.cpp:386] relu6_ -> fc6_ (in-place)
I0707 09:44:24.693001 32633 net.cpp:141] Setting up relu6_
I0707 09:44:24.693013 32633 net.cpp:148] Top shape: 32 4096 19 19 (47316992)
I0707 09:44:24.693018 32633 net.cpp:156] Memory required for data: 2690646016
I0707 09:44:24.693025 32633 layer_factory.hpp:77] Creating layer drop6_
I0707 09:44:24.693048 32633 net.cpp:91] Creating Layer drop6_
I0707 09:44:24.693058 32633 net.cpp:425] drop6_ <- fc6_
I0707 09:44:24.693074 32633 net.cpp:386] drop6_ -> fc6_ (in-place)
I0707 09:44:24.693114 32633 net.cpp:141] Setting up drop6_
I0707 09:44:24.693125 32633 net.cpp:148] Top shape: 32 4096 19 19 (47316992)
I0707 09:44:24.693130 32633 net.cpp:156] Memory required for data: 2879913984
I0707 09:44:24.693137 32633 layer_factory.hpp:77] Creating layer fc7_
I0707 09:44:24.693171 32633 net.cpp:91] Creating Layer fc7_
I0707 09:44:24.693181 32633 net.cpp:425] fc7_ <- fc6_
I0707 09:44:24.693199 32633 net.cpp:399] fc7_ -> fc7_
I0707 09:44:25.544553 32633 cudnn_conv_layer.cpp:194] Reallocating workspace storage: 19500
I0707 09:44:25.544595 32633 net.cpp:141] Setting up fc7_
I0707 09:44:25.544611 32633 net.cpp:148] Top shape: 32 4096 19 19 (47316992)
I0707 09:44:25.544616 32633 net.cpp:156] Memory required for data: 3069181952
I0707 09:44:25.544661 32633 layer_factory.hpp:77] Creating layer relu7_
I0707 09:44:25.544689 32633 net.cpp:91] Creating Layer relu7_
I0707 09:44:25.544703 32633 net.cpp:425] relu7_ <- fc7_
I0707 09:44:25.544725 32633 net.cpp:386] relu7_ -> fc7_ (in-place)
I0707 09:44:25.544996 32633 net.cpp:141] Setting up relu7_
I0707 09:44:25.545011 32633 net.cpp:148] Top shape: 32 4096 19 19 (47316992)
I0707 09:44:25.545017 32633 net.cpp:156] Memory required for data: 3258449920
I0707 09:44:25.545025 32633 layer_factory.hpp:77] Creating layer drop7_
I0707 09:44:25.545048 32633 net.cpp:91] Creating Layer drop7_
I0707 09:44:25.545058 32633 net.cpp:425] drop7_ <- fc7_
I0707 09:44:25.545076 32633 net.cpp:386] drop7_ -> fc7_ (in-place)
I0707 09:44:25.545115 32633 net.cpp:141] Setting up drop7_
I0707 09:44:25.545128 32633 net.cpp:148] Top shape: 32 4096 19 19 (47316992)
I0707 09:44:25.545133 32633 net.cpp:156] Memory required for data: 3447717888
I0707 09:44:25.545140 32633 layer_factory.hpp:77] Creating layer score_fr
I0707 09:44:25.545167 32633 net.cpp:91] Creating Layer score_fr
I0707 09:44:25.545178 32633 net.cpp:425] score_fr <- fc7_
I0707 09:44:25.545197 32633 net.cpp:399] score_fr -> score_fr
I0707 09:44:25.547243 32633 cudnn_conv_layer.cpp:194] Reallocating workspace storage: 7212
I0707 09:44:25.547354 32633 net.cpp:141] Setting up score_fr
I0707 09:44:25.547371 32633 net.cpp:148] Top shape: 32 6 19 19 (69312)
I0707 09:44:25.547377 32633 net.cpp:156] Memory required for data: 3447995136
I0707 09:44:25.547395 32633 layer_factory.hpp:77] Creating layer upscore
I0707 09:44:25.547418 32633 net.cpp:91] Creating Layer upscore
I0707 09:44:25.547430 32633 net.cpp:425] upscore <- score_fr
I0707 09:44:25.547451 32633 net.cpp:399] upscore -> upscore
I0707 09:44:25.554724 32633 net.cpp:141] Setting up upscore
I0707 09:44:25.554743 32633 net.cpp:148] Top shape: 32 6 639 639 (78397632)
I0707 09:44:25.554747 32633 net.cpp:156] Memory required for data: 3761585664
I0707 09:44:25.554760 32633 layer_factory.hpp:77] Creating layer score
I0707 09:44:25.554783 32633 net.cpp:91] Creating Layer score
I0707 09:44:25.554793 32633 net.cpp:425] score <- upscore
I0707 09:44:25.554807 32633 net.cpp:425] score <- data_data_0_split_1
I0707 09:44:25.554823 32633 net.cpp:399] score -> score
I0707 09:44:25.554884 32633 net.cpp:141] Setting up score
I0707 09:44:25.554899 32633 net.cpp:148] Top shape: 32 6 576 576 (63700992)
I0707 09:44:25.554908 32633 net.cpp:156] Memory required for data: 4016389632
I0707 09:44:25.554914 32633 layer_factory.hpp:77] Creating layer loss_
I0707 09:44:25.554935 32633 net.cpp:91] Creating Layer loss_
I0707 09:44:25.554944 32633 net.cpp:425] loss_ <- score
I0707 09:44:25.554957 32633 net.cpp:425] loss_ <- label
I0707 09:44:25.554975 32633 net.cpp:399] loss_ -> loss_
…
