…
base_lr: 0.1
display: 1
max_iter: 100000
lr_policy: "fixed"
momentum: 0.9
weight_decay: 0.0005
snapshot: 4000
snapshot_prefix: "fcn"
device_id: 0
iter_size: 1
I0708 00:13:17.694802 11153 solver.cpp:81] Creating training net from train_net file: train.prototxt
I0708 00:13:17.695947 11153 net.cpp:49] Initializing net from parameters: 
name: "FCN32AlexNet"
state {
  phase: TRAIN
}
layer {
  name: "data"
  type: "ROOTData"
  top: "data"
  top: "label"
  root_data_param {
    batch_size: 32
    filler_config: "train_filler.cfg"
    filler_name: "Train"
  }
}
layer {
  name: "conv1"
  type: "Convolution"
  bottom: "data"
  top: "conv1"
  convolution_param {
    num_output: 96
    pad: 100
    kernel_size: 11
    group: 1
    stride: 4
  }
}
layer {
  name: "relu1"
  type: "ReLU"
  bottom: "conv1"
  top: "conv1"
}
layer {
  name: "pool1"
  type: "Pooling"
  bottom: "conv1"
  top: "pool1"
  pooling_param {
    pool: MAX
    kernel_size: 3
    stride: 2
  }
}
layer {
  name: "norm1"
  type: "LRN"
  bottom: "pool1"
  top: "norm1"
  lrn_param {
    local_size: 5
    alpha: 0.0001
    beta: 0.75
  }
}
layer {
  name: "conv2"
  type: "Convolution"
  bottom: "norm1"
  top: "conv2"
  convolution_param {
    num_output: 256
    pad: 2
    kernel_size: 5
    group: 2
    stride: 1
  }
}
layer {
  name: "relu2"
  type: "ReLU"
  bottom: "conv2"
  top: "conv2"
}
layer {
  name: "pool2"
  type: "Pooling"
  bottom: "conv2"
  top: "pool2"
  pooling_param {
    pool: MAX
    kernel_size: 3
    stride: 2
  }
}
layer {
  name: "norm2"
  type: "LRN"
  bottom: "pool2"
  top: "norm2"
  lrn_param {
    local_size: 5
    alpha: 0.0001
    beta: 0.75
  }
}
layer {
  name: "conv3"
  type: "Convolution"
  bottom: "norm2"
  top: "conv3"
  convolution_param {
    num_output: 384
    pad: 1
    kernel_size: 3
    group: 1
    stride: 1
  }
}
layer {
  name: "relu3"
  type: "ReLU"
  bottom: "conv3"
  top: "conv3"
}
layer {
  name: "conv4"
  type: "Convolution"
  bottom: "conv3"
  top: "conv4"
  convolution_param {
    num_output: 384
    pad: 1
    kernel_size: 3
    group: 2
    stride: 1
  }
}
layer {
  name: "relu4"
  type: "ReLU"
  bottom: "conv4"
  top: "conv4"
}
layer {
  name: "conv5"
  type: "Convolution"
  bottom: "conv4"
  top: "conv5"
  convolution_param {
    num_output: 256
    pad: 1
    kernel_size: 3
    group: 2
    stride: 1
  }
}
layer {
  name: "relu5"
  type: "ReLU"
  bottom: "conv5"
  top: "conv5"
}
layer {
  name: "pool5"
  type: "Pooling"
  bottom: "conv5"
  top: "pool5"
  pooling_param {
    pool: MAX
    kernel_size: 3
    stride: 2
  }
}
layer {
  name: "fc6_"
  type: "Convolution"
  bottom: "pool5"
  top: "fc6_"
  convolution_param {
    num_output: 4096
    pad: 0
    kernel_size: 6
    group: 1
    stride: 1
    weight_filler {
      type: "xavier"
    }
  }
}
layer {
  name: "relu6_"
  type: "ReLU"
  bottom: "fc6_"
  top: "fc6_"
}
layer {
  name: "drop6_"
  type: "Dropout"
  bottom: "fc6_"
  top: "fc6_"
  dropout_param {
    dropout_ratio: 0.5
  }
}
layer {
  name: "fc7_"
  type: "Convolution"
  bottom: "fc6_"
  top: "fc7_"
  convolution_param {
    num_output: 4096
    pad: 0
    kernel_size: 1
    group: 1
    stride: 1
    weight_filler {
      type: "xavier"
    }
  }
}
layer {
  name: "relu7_"
  type: "ReLU"
  bottom: "fc7_"
  top: "fc7_"
}
layer {
  name: "drop7_"
  type: "Dropout"
  bottom: "fc7_"
  top: "fc7_"
  dropout_param {
    dropout_ratio: 0.5
  }
}
layer {
  name: "score_fr"
  type: "Convolution"
  bottom: "fc7_"
  top: "score_fr"
  param {
    lr_mult: 1
    decay_mult: 1
  }
  param {
    lr_mult: 2
    decay_mult: 0
  }
  convolution_param {
    num_output: 6
    pad: 0
    kernel_size: 1
    weight_filler {
      type: "xavier"
    }
  }
}
layer {
  name: "upscore2"
  type: "Deconvolution"
  bottom: "score_fr"
  top: "upscore2"
  param {
    lr_mult: 1
    decay_mult: 1
  }
  convolution_param {
    num_output: 6
    bias_term: false
    kernel_size: 4
    stride: 2
    weight_filler {
      type: "xavier"
    }
  }
}
layer {
  name: "score_pool2"
  type: "Convolution"
  bottom: "norm2"
  top: "score_pool2"
  param {
    lr_mult: 1
    decay_mult: 1
  }
  param {
    lr_mult: 2
    decay_mult: 0
  }
  convolution_param {
    num_output: 6
    pad: 0
    kernel_size: 1
    weight_filler {
      type: "xavier"
    }
  }
}
layer {
  name: "score_pool2c"
  type: "Crop"
  bottom: "score_pool2"
  bottom: "upscore2"
  top: "score_pool2c"
  crop_param {
    axis: 2
    offset: 5
  }
}
layer {
  name: "fuse_pool2"
  type: "Eltwise"
  bottom: "upscore2"
  bottom: "score_pool2c"
  top: "fuse_pool2"
  eltwise_param {
    operation: SUM
  }
}
layer {
  name: "upscore16"
  type: "Deconvolution"
  bottom: "fuse_pool2"
  top: "upscore16"
  param {
    lr_mult: 1
  }
  convolution_param {
    num_output: 6
    bias_term: false
    kernel_size: 32
    stride: 16
    weight_filler {
      type: "xavier"
    }
  }
}
layer {
  name: "score"
  type: "Crop"
  bottom: "upscore16"
  bottom: "data"
  top: "score"
  crop_param {
    axis: 2
    offset: 27
  }
}
layer {
  name: "loss_"
  type: "SoftmaxWithLoss"
  bottom: "score"
  bottom: "label"
  top: "loss_"
  loss_param {
    normalize: true
  }
}
I0708 00:13:17.696630 11153 layer_factory.hpp:77] Creating layer data
I0708 00:13:17.696687 11153 net.cpp:91] Creating Layer data
I0708 00:13:17.696707 11153 net.cpp:399] data -> data
I0708 00:13:17.696846 11153 net.cpp:399] data -> label
I0708 00:13:18.977095 11153 heproot.cpp:19] Queuing data... (1 sec.)
I0708 00:13:20.255439 11153 heproot.cpp:19] Queuing data... (2 sec.)
I0708 00:13:20.534936 11153 net.cpp:141] Setting up data
I0708 00:13:20.535010 11153 net.cpp:148] Top shape: 32 1 576 576 (10616832)
I0708 00:13:20.535027 11153 net.cpp:148] Top shape: 32 1 576 576 (10616832)
I0708 00:13:20.535032 11153 net.cpp:156] Memory required for data: 84934656
I0708 00:13:20.535063 11153 layer_factory.hpp:77] Creating layer data_data_0_split
I0708 00:13:20.535116 11153 net.cpp:91] Creating Layer data_data_0_split
I0708 00:13:20.535140 11153 net.cpp:425] data_data_0_split <- data
I0708 00:13:20.535192 11153 net.cpp:399] data_data_0_split -> data_data_0_split_0
I0708 00:13:20.535238 11153 net.cpp:399] data_data_0_split -> data_data_0_split_1
I0708 00:13:20.535308 11153 net.cpp:141] Setting up data_data_0_split
I0708 00:13:20.535325 11153 net.cpp:148] Top shape: 32 1 576 576 (10616832)
I0708 00:13:20.535339 11153 net.cpp:148] Top shape: 32 1 576 576 (10616832)
I0708 00:13:20.535346 11153 net.cpp:156] Memory required for data: 169869312
I0708 00:13:20.535354 11153 layer_factory.hpp:77] Creating layer conv1
I0708 00:13:20.535404 11153 net.cpp:91] Creating Layer conv1
I0708 00:13:20.535416 11153 net.cpp:425] conv1 <- data_data_0_split_0
I0708 00:13:20.535441 11153 net.cpp:399] conv1 -> conv1
I0708 00:13:20.790678 11153 cudnn_conv_layer.cpp:194] Reallocating workspace storage: 1452
I0708 00:13:20.790807 11153 net.cpp:141] Setting up conv1
I0708 00:13:20.790828 11153 net.cpp:148] Top shape: 32 96 192 192 (113246208)
I0708 00:13:20.790832 11153 net.cpp:156] Memory required for data: 622854144
I0708 00:13:20.790905 11153 layer_factory.hpp:77] Creating layer relu1
I0708 00:13:20.790940 11153 net.cpp:91] Creating Layer relu1
I0708 00:13:20.790949 11153 net.cpp:425] relu1 <- conv1
I0708 00:13:20.790968 11153 net.cpp:386] relu1 -> conv1 (in-place)
I0708 00:13:20.791208 11153 net.cpp:141] Setting up relu1
I0708 00:13:20.791218 11153 net.cpp:148] Top shape: 32 96 192 192 (113246208)
I0708 00:13:20.791221 11153 net.cpp:156] Memory required for data: 1075838976
I0708 00:13:20.791227 11153 layer_factory.hpp:77] Creating layer pool1
I0708 00:13:20.791254 11153 net.cpp:91] Creating Layer pool1
I0708 00:13:20.791260 11153 net.cpp:425] pool1 <- conv1
I0708 00:13:20.791275 11153 net.cpp:399] pool1 -> pool1
I0708 00:13:20.791337 11153 net.cpp:141] Setting up pool1
I0708 00:13:20.791348 11153 net.cpp:148] Top shape: 32 96 96 96 (28311552)
I0708 00:13:20.791352 11153 net.cpp:156] Memory required for data: 1189085184
I0708 00:13:20.791371 11153 layer_factory.hpp:77] Creating layer norm1
I0708 00:13:20.791398 11153 net.cpp:91] Creating Layer norm1
I0708 00:13:20.791404 11153 net.cpp:425] norm1 <- pool1
I0708 00:13:20.791417 11153 net.cpp:399] norm1 -> norm1
I0708 00:13:20.791580 11153 net.cpp:141] Setting up norm1
I0708 00:13:20.791592 11153 net.cpp:148] Top shape: 32 96 96 96 (28311552)
I0708 00:13:20.791595 11153 net.cpp:156] Memory required for data: 1302331392
I0708 00:13:20.791600 11153 layer_factory.hpp:77] Creating layer conv2
I0708 00:13:20.791622 11153 net.cpp:91] Creating Layer conv2
I0708 00:13:20.791630 11153 net.cpp:425] conv2 <- norm1
I0708 00:13:20.791643 11153 net.cpp:399] conv2 -> conv2
I0708 00:13:20.793861 11153 cudnn_conv_layer.cpp:194] Reallocating workspace storage: 344880
I0708 00:13:20.793970 11153 net.cpp:141] Setting up conv2
I0708 00:13:20.793982 11153 net.cpp:148] Top shape: 32 256 96 96 (75497472)
I0708 00:13:20.793987 11153 net.cpp:156] Memory required for data: 1604321280
I0708 00:13:20.794013 11153 layer_factory.hpp:77] Creating layer relu2
I0708 00:13:20.794029 11153 net.cpp:91] Creating Layer relu2
I0708 00:13:20.794035 11153 net.cpp:425] relu2 <- conv2
I0708 00:13:20.794049 11153 net.cpp:386] relu2 -> conv2 (in-place)
I0708 00:13:20.794185 11153 net.cpp:141] Setting up relu2
I0708 00:13:20.794195 11153 net.cpp:148] Top shape: 32 256 96 96 (75497472)
I0708 00:13:20.794199 11153 net.cpp:156] Memory required for data: 1906311168
I0708 00:13:20.794204 11153 layer_factory.hpp:77] Creating layer pool2
I0708 00:13:20.794224 11153 net.cpp:91] Creating Layer pool2
I0708 00:13:20.794230 11153 net.cpp:425] pool2 <- conv2
I0708 00:13:20.794244 11153 net.cpp:399] pool2 -> pool2
I0708 00:13:20.794298 11153 net.cpp:141] Setting up pool2
I0708 00:13:20.794309 11153 net.cpp:148] Top shape: 32 256 48 48 (18874368)
I0708 00:13:20.794313 11153 net.cpp:156] Memory required for data: 1981808640
I0708 00:13:20.794318 11153 layer_factory.hpp:77] Creating layer norm2
I0708 00:13:20.794337 11153 net.cpp:91] Creating Layer norm2
I0708 00:13:20.794343 11153 net.cpp:425] norm2 <- pool2
I0708 00:13:20.794358 11153 net.cpp:399] norm2 -> norm2
I0708 00:13:20.794622 11153 net.cpp:141] Setting up norm2
I0708 00:13:20.794634 11153 net.cpp:148] Top shape: 32 256 48 48 (18874368)
I0708 00:13:20.794637 11153 net.cpp:156] Memory required for data: 2057306112
I0708 00:13:20.794644 11153 layer_factory.hpp:77] Creating layer norm2_norm2_0_split
I0708 00:13:20.794658 11153 net.cpp:91] Creating Layer norm2_norm2_0_split
I0708 00:13:20.794664 11153 net.cpp:425] norm2_norm2_0_split <- norm2
I0708 00:13:20.794677 11153 net.cpp:399] norm2_norm2_0_split -> norm2_norm2_0_split_0
I0708 00:13:20.794692 11153 net.cpp:399] norm2_norm2_0_split -> norm2_norm2_0_split_1
I0708 00:13:20.794734 11153 net.cpp:141] Setting up norm2_norm2_0_split
I0708 00:13:20.794742 11153 net.cpp:148] Top shape: 32 256 48 48 (18874368)
I0708 00:13:20.794747 11153 net.cpp:148] Top shape: 32 256 48 48 (18874368)
I0708 00:13:20.794749 11153 net.cpp:156] Memory required for data: 2208301056
I0708 00:13:20.794754 11153 layer_factory.hpp:77] Creating layer conv3
I0708 00:13:20.794775 11153 net.cpp:91] Creating Layer conv3
I0708 00:13:20.794782 11153 net.cpp:425] conv3 <- norm2_norm2_0_split_0
I0708 00:13:20.794796 11153 net.cpp:399] conv3 -> conv3
I0708 00:13:20.798946 11153 cudnn_conv_layer.cpp:194] Reallocating workspace storage: 48024
I0708 00:13:20.798990 11153 net.cpp:141] Setting up conv3
I0708 00:13:20.799003 11153 net.cpp:148] Top shape: 32 384 48 48 (28311552)
I0708 00:13:20.799007 11153 net.cpp:156] Memory required for data: 2321547264
I0708 00:13:20.799048 11153 layer_factory.hpp:77] Creating layer relu3
I0708 00:13:20.799075 11153 net.cpp:91] Creating Layer relu3
I0708 00:13:20.799085 11153 net.cpp:425] relu3 <- conv3
I0708 00:13:20.799103 11153 net.cpp:386] relu3 -> conv3 (in-place)
I0708 00:13:20.799257 11153 net.cpp:141] Setting up relu3
I0708 00:13:20.799268 11153 net.cpp:148] Top shape: 32 384 48 48 (28311552)
I0708 00:13:20.799276 11153 net.cpp:156] Memory required for data: 2434793472
I0708 00:13:20.799290 11153 layer_factory.hpp:77] Creating layer conv4
I0708 00:13:20.799315 11153 net.cpp:91] Creating Layer conv4
I0708 00:13:20.799322 11153 net.cpp:425] conv4 <- conv3
I0708 00:13:20.799337 11153 net.cpp:399] conv4 -> conv4
I0708 00:13:20.802670 11153 cudnn_conv_layer.cpp:194] Reallocating workspace storage: 96048
I0708 00:13:20.802814 11153 net.cpp:141] Setting up conv4
I0708 00:13:20.802830 11153 net.cpp:148] Top shape: 32 384 48 48 (28311552)
I0708 00:13:20.802834 11153 net.cpp:156] Memory required for data: 2548039680
I0708 00:13:20.802857 11153 layer_factory.hpp:77] Creating layer relu4
I0708 00:13:20.802881 11153 net.cpp:91] Creating Layer relu4
I0708 00:13:20.802891 11153 net.cpp:425] relu4 <- conv4
I0708 00:13:20.802917 11153 net.cpp:386] relu4 -> conv4 (in-place)
I0708 00:13:20.803069 11153 net.cpp:141] Setting up relu4
I0708 00:13:20.803081 11153 net.cpp:148] Top shape: 32 384 48 48 (28311552)
I0708 00:13:20.803083 11153 net.cpp:156] Memory required for data: 2661285888
I0708 00:13:20.803088 11153 layer_factory.hpp:77] Creating layer conv5
I0708 00:13:20.803108 11153 net.cpp:91] Creating Layer conv5
I0708 00:13:20.803115 11153 net.cpp:425] conv5 <- conv4
I0708 00:13:20.803131 11153 net.cpp:399] conv5 -> conv5
I0708 00:13:20.805950 11153 cudnn_conv_layer.cpp:194] Reallocating workspace storage: 96048
I0708 00:13:20.805986 11153 net.cpp:141] Setting up conv5
I0708 00:13:20.805997 11153 net.cpp:148] Top shape: 32 256 48 48 (18874368)
I0708 00:13:20.806000 11153 net.cpp:156] Memory required for data: 2736783360
I0708 00:13:20.806033 11153 layer_factory.hpp:77] Creating layer relu5
I0708 00:13:20.806061 11153 net.cpp:91] Creating Layer relu5
I0708 00:13:20.806069 11153 net.cpp:425] relu5 <- conv5
I0708 00:13:20.806085 11153 net.cpp:386] relu5 -> conv5 (in-place)
I0708 00:13:20.806231 11153 net.cpp:141] Setting up relu5
I0708 00:13:20.806241 11153 net.cpp:148] Top shape: 32 256 48 48 (18874368)
I0708 00:13:20.806244 11153 net.cpp:156] Memory required for data: 2812280832
I0708 00:13:20.806251 11153 layer_factory.hpp:77] Creating layer pool5
I0708 00:13:20.806267 11153 net.cpp:91] Creating Layer pool5
I0708 00:13:20.806274 11153 net.cpp:425] pool5 <- conv5
I0708 00:13:20.806288 11153 net.cpp:399] pool5 -> pool5
I0708 00:13:20.806346 11153 net.cpp:141] Setting up pool5
I0708 00:13:20.806356 11153 net.cpp:148] Top shape: 32 256 24 24 (4718592)
I0708 00:13:20.806360 11153 net.cpp:156] Memory required for data: 2831155200
I0708 00:13:20.806365 11153 layer_factory.hpp:77] Creating layer fc6_
I0708 00:13:20.806386 11153 net.cpp:91] Creating Layer fc6_
I0708 00:13:20.806393 11153 net.cpp:425] fc6_ <- pool5
I0708 00:13:20.806408 11153 net.cpp:399] fc6_ -> fc6_
I0708 00:13:22.570283 11153 cudnn_conv_layer.cpp:194] Reallocating workspace storage: 46836
I0708 00:13:22.570327 11153 net.cpp:141] Setting up fc6_
I0708 00:13:22.570343 11153 net.cpp:148] Top shape: 32 4096 19 19 (47316992)
I0708 00:13:22.570346 11153 net.cpp:156] Memory required for data: 3020423168
I0708 00:13:22.570371 11153 layer_factory.hpp:77] Creating layer relu6_
I0708 00:13:22.570397 11153 net.cpp:91] Creating Layer relu6_
I0708 00:13:22.570408 11153 net.cpp:425] relu6_ <- fc6_
I0708 00:13:22.570430 11153 net.cpp:386] relu6_ -> fc6_ (in-place)
I0708 00:13:22.570677 11153 net.cpp:141] Setting up relu6_
I0708 00:13:22.570689 11153 net.cpp:148] Top shape: 32 4096 19 19 (47316992)
I0708 00:13:22.570693 11153 net.cpp:156] Memory required for data: 3209691136
I0708 00:13:22.570698 11153 layer_factory.hpp:77] Creating layer drop6_
I0708 00:13:22.570719 11153 net.cpp:91] Creating Layer drop6_
I0708 00:13:22.570725 11153 net.cpp:425] drop6_ <- fc6_
I0708 00:13:22.570739 11153 net.cpp:386] drop6_ -> fc6_ (in-place)
I0708 00:13:22.570776 11153 net.cpp:141] Setting up drop6_
I0708 00:13:22.570785 11153 net.cpp:148] Top shape: 32 4096 19 19 (47316992)
I0708 00:13:22.570787 11153 net.cpp:156] Memory required for data: 3398959104
I0708 00:13:22.570792 11153 layer_factory.hpp:77] Creating layer fc7_
I0708 00:13:22.570823 11153 net.cpp:91] Creating Layer fc7_
I0708 00:13:22.570838 11153 net.cpp:425] fc7_ <- fc6_
I0708 00:13:22.570853 11153 net.cpp:399] fc7_ -> fc7_
I0708 00:13:23.351325 11153 cudnn_conv_layer.cpp:194] Reallocating workspace storage: 19500
I0708 00:13:23.351367 11153 net.cpp:141] Setting up fc7_
I0708 00:13:23.351382 11153 net.cpp:148] Top shape: 32 4096 19 19 (47316992)
I0708 00:13:23.351385 11153 net.cpp:156] Memory required for data: 3588227072
I0708 00:13:23.351411 11153 layer_factory.hpp:77] Creating layer relu7_
I0708 00:13:23.351438 11153 net.cpp:91] Creating Layer relu7_
I0708 00:13:23.351449 11153 net.cpp:425] relu7_ <- fc7_
I0708 00:13:23.351469 11153 net.cpp:386] relu7_ -> fc7_ (in-place)
I0708 00:13:23.351624 11153 net.cpp:141] Setting up relu7_
I0708 00:13:23.351635 11153 net.cpp:148] Top shape: 32 4096 19 19 (47316992)
I0708 00:13:23.351639 11153 net.cpp:156] Memory required for data: 3777495040
I0708 00:13:23.351644 11153 layer_factory.hpp:77] Creating layer drop7_
I0708 00:13:23.351660 11153 net.cpp:91] Creating Layer drop7_
I0708 00:13:23.351665 11153 net.cpp:425] drop7_ <- fc7_
I0708 00:13:23.351678 11153 net.cpp:386] drop7_ -> fc7_ (in-place)
I0708 00:13:23.351714 11153 net.cpp:141] Setting up drop7_
I0708 00:13:23.351722 11153 net.cpp:148] Top shape: 32 4096 19 19 (47316992)
I0708 00:13:23.351724 11153 net.cpp:156] Memory required for data: 3966763008
I0708 00:13:23.351729 11153 layer_factory.hpp:77] Creating layer score_fr
I0708 00:13:23.351755 11153 net.cpp:91] Creating Layer score_fr
I0708 00:13:23.351763 11153 net.cpp:425] score_fr <- fc7_
I0708 00:13:23.351778 11153 net.cpp:399] score_fr -> score_fr
I0708 00:13:23.353869 11153 cudnn_conv_layer.cpp:194] Reallocating workspace storage: 7212
I0708 00:13:23.353994 11153 net.cpp:141] Setting up score_fr
I0708 00:13:23.354012 11153 net.cpp:148] Top shape: 32 6 19 19 (69312)
I0708 00:13:23.354015 11153 net.cpp:156] Memory required for data: 3967040256
I0708 00:13:23.354041 11153 layer_factory.hpp:77] Creating layer upscore2
I0708 00:13:23.354079 11153 net.cpp:91] Creating Layer upscore2
I0708 00:13:23.354089 11153 net.cpp:425] upscore2 <- score_fr
I0708 00:13:23.354109 11153 net.cpp:399] upscore2 -> upscore2
I0708 00:13:23.354347 11153 net.cpp:141] Setting up upscore2
I0708 00:13:23.354359 11153 net.cpp:148] Top shape: 32 6 40 40 (307200)
I0708 00:13:23.354362 11153 net.cpp:156] Memory required for data: 3968269056
I0708 00:13:23.354385 11153 layer_factory.hpp:77] Creating layer upscore2_upscore2_0_split
I0708 00:13:23.354400 11153 net.cpp:91] Creating Layer upscore2_upscore2_0_split
I0708 00:13:23.354408 11153 net.cpp:425] upscore2_upscore2_0_split <- upscore2
I0708 00:13:23.354419 11153 net.cpp:399] upscore2_upscore2_0_split -> upscore2_upscore2_0_split_0
I0708 00:13:23.354434 11153 net.cpp:399] upscore2_upscore2_0_split -> upscore2_upscore2_0_split_1
I0708 00:13:23.354475 11153 net.cpp:141] Setting up upscore2_upscore2_0_split
I0708 00:13:23.354485 11153 net.cpp:148] Top shape: 32 6 40 40 (307200)
I0708 00:13:23.354488 11153 net.cpp:148] Top shape: 32 6 40 40 (307200)
I0708 00:13:23.354491 11153 net.cpp:156] Memory required for data: 3970726656
I0708 00:13:23.354496 11153 layer_factory.hpp:77] Creating layer score_pool2
I0708 00:13:23.354516 11153 net.cpp:91] Creating Layer score_pool2
I0708 00:13:23.354523 11153 net.cpp:425] score_pool2 <- norm2_norm2_0_split_1
I0708 00:13:23.354539 11153 net.cpp:399] score_pool2 -> score_pool2
I0708 00:13:23.355448 11153 cudnn_conv_layer.cpp:194] Reallocating workspace storage: 48024
I0708 00:13:23.355469 11153 net.cpp:141] Setting up score_pool2
I0708 00:13:23.355478 11153 net.cpp:148] Top shape: 32 6 48 48 (442368)
I0708 00:13:23.355480 11153 net.cpp:156] Memory required for data: 3972496128
I0708 00:13:23.355494 11153 layer_factory.hpp:77] Creating layer score_pool2c
I0708 00:13:23.355515 11153 net.cpp:91] Creating Layer score_pool2c
I0708 00:13:23.355522 11153 net.cpp:425] score_pool2c <- score_pool2
I0708 00:13:23.355533 11153 net.cpp:425] score_pool2c <- upscore2_upscore2_0_split_0
I0708 00:13:23.355553 11153 net.cpp:399] score_pool2c -> score_pool2c
I0708 00:13:23.355619 11153 net.cpp:141] Setting up score_pool2c
I0708 00:13:23.355629 11153 net.cpp:148] Top shape: 32 6 40 40 (307200)
I0708 00:13:23.355633 11153 net.cpp:156] Memory required for data: 3973724928
I0708 00:13:23.355638 11153 layer_factory.hpp:77] Creating layer fuse_pool2
I0708 00:13:23.355657 11153 net.cpp:91] Creating Layer fuse_pool2
I0708 00:13:23.355664 11153 net.cpp:425] fuse_pool2 <- upscore2_upscore2_0_split_1
I0708 00:13:23.355674 11153 net.cpp:425] fuse_pool2 <- score_pool2c
I0708 00:13:23.355685 11153 net.cpp:399] fuse_pool2 -> fuse_pool2
I0708 00:13:23.355742 11153 net.cpp:141] Setting up fuse_pool2
I0708 00:13:23.355752 11153 net.cpp:148] Top shape: 32 6 40 40 (307200)
I0708 00:13:23.355756 11153 net.cpp:156] Memory required for data: 3974953728
I0708 00:13:23.355761 11153 layer_factory.hpp:77] Creating layer upscore16
I0708 00:13:23.355777 11153 net.cpp:91] Creating Layer upscore16
I0708 00:13:23.355784 11153 net.cpp:425] upscore16 <- fuse_pool2
I0708 00:13:23.355800 11153 net.cpp:399] upscore16 -> upscore16
I0708 00:13:23.357671 11153 net.cpp:141] Setting up upscore16
I0708 00:13:23.357684 11153 net.cpp:148] Top shape: 32 6 656 656 (82624512)
I0708 00:13:23.357687 11153 net.cpp:156] Memory required for data: 4305451776
I0708 00:13:23.357698 11153 layer_factory.hpp:77] Creating layer score
I0708 00:13:23.357714 11153 net.cpp:91] Creating Layer score
I0708 00:13:23.357722 11153 net.cpp:425] score <- upscore16
I0708 00:13:23.357731 11153 net.cpp:425] score <- data_data_0_split_1
I0708 00:13:23.357741 11153 net.cpp:399] score -> score
I0708 00:13:23.357782 11153 net.cpp:141] Setting up score
I0708 00:13:23.357791 11153 net.cpp:148] Top shape: 32 6 576 576 (63700992)
I0708 00:13:23.357795 11153 net.cpp:156] Memory required for data: 4560255744
I0708 00:13:23.357800 11153 layer_factory.hpp:77] Creating layer loss_
I0708 00:13:23.357826 11153 net.cpp:91] Creating Layer loss_
I0708 00:13:23.357833 11153 net.cpp:425] loss_ <- score
I0708 00:13:23.357844 11153 net.cpp:425] loss_ <- label
I0708 00:13:23.357856 11153 net.cpp:399] loss_ -> loss_
…
