…
base_lr: 0.1
display: 1
max_iter: 100000
lr_policy: "fixed"
momentum: 0.9
weight_decay: 0.0005
snapshot: 4000
snapshot_prefix: "fcn"
device_id: 0
iter_size: 1
I0707 16:55:13.074630 22380 solver.cpp:81] Creating training net from train_net file: train.prototxt
I0707 16:55:13.075264 22380 net.cpp:49] Initializing net from parameters: 
name: "FCN32AlexNet"
state {
  phase: TRAIN
}
layer {
  name: "data"
  type: "ROOTData"
  top: "data"
  top: "label"
  root_data_param {
    batch_size: 32
    filler_config: "train_filler.cfg"
    filler_name: "Train"
  }
}
layer {
  name: "conv1"
  type: "Convolution"
  bottom: "data"
  top: "conv1"
  convolution_param {
    num_output: 96
    pad: 100
    kernel_size: 11
    group: 1
    stride: 4
  }
}
layer {
  name: "relu1"
  type: "ReLU"
  bottom: "conv1"
  top: "conv1"
}
layer {
  name: "pool1"
  type: "Pooling"
  bottom: "conv1"
  top: "pool1"
  pooling_param {
    pool: MAX
    kernel_size: 3
    stride: 2
  }
}
layer {
  name: "norm1"
  type: "LRN"
  bottom: "pool1"
  top: "norm1"
  lrn_param {
    local_size: 5
    alpha: 0.0001
    beta: 0.75
  }
}
layer {
  name: "conv2"
  type: "Convolution"
  bottom: "norm1"
  top: "conv2"
  convolution_param {
    num_output: 256
    pad: 2
    kernel_size: 5
    group: 2
    stride: 1
  }
}
layer {
  name: "relu2"
  type: "ReLU"
  bottom: "conv2"
  top: "conv2"
}
layer {
  name: "pool2"
  type: "Pooling"
  bottom: "conv2"
  top: "pool2"
  pooling_param {
    pool: MAX
    kernel_size: 3
    stride: 2
  }
}
layer {
  name: "norm2"
  type: "LRN"
  bottom: "pool2"
  top: "norm2"
  lrn_param {
    local_size: 5
    alpha: 0.0001
    beta: 0.75
  }
}
layer {
  name: "conv3"
  type: "Convolution"
  bottom: "norm2"
  top: "conv3"
  convolution_param {
    num_output: 384
    pad: 1
    kernel_size: 3
    group: 1
    stride: 1
  }
}
layer {
  name: "relu3"
  type: "ReLU"
  bottom: "conv3"
  top: "conv3"
}
layer {
  name: "pool5"
  type: "Pooling"
  bottom: "conv3"
  top: "pool5"
  pooling_param {
    pool: MAX
    kernel_size: 3
    stride: 2
  }
}
layer {
  name: "fc6_"
  type: "Convolution"
  bottom: "pool5"
  top: "fc6_"
  convolution_param {
    num_output: 4096
    pad: 0
    kernel_size: 6
    group: 1
    stride: 1
    weight_filler {
      type: "xavier"
    }
  }
}
layer {
  name: "relu6_"
  type: "ReLU"
  bottom: "fc6_"
  top: "fc6_"
}
layer {
  name: "drop6_"
  type: "Dropout"
  bottom: "fc6_"
  top: "fc6_"
  dropout_param {
    dropout_ratio: 0.5
  }
}
layer {
  name: "fc7_"
  type: "Convolution"
  bottom: "fc6_"
  top: "fc7_"
  convolution_param {
    num_output: 4096
    pad: 0
    kernel_size: 1
    group: 1
    stride: 1
    weight_filler {
      type: "xavier"
    }
  }
}
layer {
  name: "relu7_"
  type: "ReLU"
  bottom: "fc7_"
  top: "fc7_"
}
layer {
  name: "drop7_"
  type: "Dropout"
  bottom: "fc7_"
  top: "fc7_"
  dropout_param {
    dropout_ratio: 0.5
  }
}
layer {
  name: "score_fr"
  type: "Convolution"
  bottom: "fc7_"
  top: "score_fr"
  param {
    lr_mult: 1
    decay_mult: 1
  }
  param {
    lr_mult: 2
    decay_mult: 0
  }
  convolution_param {
    num_output: 6
    pad: 0
    kernel_size: 1
    weight_filler {
      type: "xavier"
    }
  }
}
layer {
  name: "upscore"
  type: "Deconvolution"
  bottom: "score_fr"
  top: "upscore"
  param {
    lr_mult: 1
    decay_mult: 1
  }
  convolution_param {
    num_output: 6
    bias_term: false
    kernel_size: 63
    stride: 32
    weight_filler {
      type: "xavier"
    }
  }
}
layer {
  name: "score"
  type: "Crop"
  bottom: "upscore"
  bottom: "data"
  top: "score"
  crop_param {
    axis: 2
    offset: 18
  }
}
layer {
  name: "loss_"
  type: "SoftmaxWithLoss"
  bottom: "score"
  bottom: "label"
  top: "loss_"
  loss_param {
    normalize: true
  }
}
I0707 16:55:13.075649 22380 layer_factory.hpp:77] Creating layer data
I0707 16:55:13.075692 22380 net.cpp:91] Creating Layer data
I0707 16:55:13.075716 22380 net.cpp:399] data -> data
I0707 16:55:13.075829 22380 net.cpp:399] data -> label
I0707 16:55:14.360797 22380 heproot.cpp:19] Queuing data... (1 sec.)
I0707 16:55:15.493670 22380 net.cpp:141] Setting up data
I0707 16:55:15.493731 22380 net.cpp:148] Top shape: 32 1 576 576 (10616832)
I0707 16:55:15.493743 22380 net.cpp:148] Top shape: 32 1 576 576 (10616832)
I0707 16:55:15.493748 22380 net.cpp:156] Memory required for data: 84934656
I0707 16:55:15.493777 22380 layer_factory.hpp:77] Creating layer data_data_0_split
I0707 16:55:15.493829 22380 net.cpp:91] Creating Layer data_data_0_split
I0707 16:55:15.493850 22380 net.cpp:425] data_data_0_split <- data
I0707 16:55:15.493896 22380 net.cpp:399] data_data_0_split -> data_data_0_split_0
I0707 16:55:15.493939 22380 net.cpp:399] data_data_0_split -> data_data_0_split_1
I0707 16:55:15.494007 22380 net.cpp:141] Setting up data_data_0_split
I0707 16:55:15.494022 22380 net.cpp:148] Top shape: 32 1 576 576 (10616832)
I0707 16:55:15.494035 22380 net.cpp:148] Top shape: 32 1 576 576 (10616832)
I0707 16:55:15.494041 22380 net.cpp:156] Memory required for data: 169869312
I0707 16:55:15.494051 22380 layer_factory.hpp:77] Creating layer conv1
I0707 16:55:15.494099 22380 net.cpp:91] Creating Layer conv1
I0707 16:55:15.494112 22380 net.cpp:425] conv1 <- data_data_0_split_0
I0707 16:55:15.494137 22380 net.cpp:399] conv1 -> conv1
I0707 16:55:15.690423 22380 cudnn_conv_layer.cpp:194] Reallocating workspace storage: 1452
I0707 16:55:15.690551 22380 net.cpp:141] Setting up conv1
I0707 16:55:15.690572 22380 net.cpp:148] Top shape: 32 96 192 192 (113246208)
I0707 16:55:15.690575 22380 net.cpp:156] Memory required for data: 622854144
I0707 16:55:15.690649 22380 layer_factory.hpp:77] Creating layer relu1
I0707 16:55:15.690685 22380 net.cpp:91] Creating Layer relu1
I0707 16:55:15.690696 22380 net.cpp:425] relu1 <- conv1
I0707 16:55:15.690717 22380 net.cpp:386] relu1 -> conv1 (in-place)
I0707 16:55:15.690963 22380 net.cpp:141] Setting up relu1
I0707 16:55:15.690974 22380 net.cpp:148] Top shape: 32 96 192 192 (113246208)
I0707 16:55:15.690979 22380 net.cpp:156] Memory required for data: 1075838976
I0707 16:55:15.690985 22380 layer_factory.hpp:77] Creating layer pool1
I0707 16:55:15.691012 22380 net.cpp:91] Creating Layer pool1
I0707 16:55:15.691020 22380 net.cpp:425] pool1 <- conv1
I0707 16:55:15.691036 22380 net.cpp:399] pool1 -> pool1
I0707 16:55:15.691100 22380 net.cpp:141] Setting up pool1
I0707 16:55:15.691112 22380 net.cpp:148] Top shape: 32 96 96 96 (28311552)
I0707 16:55:15.691115 22380 net.cpp:156] Memory required for data: 1189085184
I0707 16:55:15.691121 22380 layer_factory.hpp:77] Creating layer norm1
I0707 16:55:15.691145 22380 net.cpp:91] Creating Layer norm1
I0707 16:55:15.691154 22380 net.cpp:425] norm1 <- pool1
I0707 16:55:15.691169 22380 net.cpp:399] norm1 -> norm1
I0707 16:55:15.691334 22380 net.cpp:141] Setting up norm1
I0707 16:55:15.691345 22380 net.cpp:148] Top shape: 32 96 96 96 (28311552)
I0707 16:55:15.691349 22380 net.cpp:156] Memory required for data: 1302331392
I0707 16:55:15.691355 22380 layer_factory.hpp:77] Creating layer conv2
I0707 16:55:15.691378 22380 net.cpp:91] Creating Layer conv2
I0707 16:55:15.691386 22380 net.cpp:425] conv2 <- norm1
I0707 16:55:15.691401 22380 net.cpp:399] conv2 -> conv2
I0707 16:55:15.693691 22380 cudnn_conv_layer.cpp:194] Reallocating workspace storage: 344880
I0707 16:55:15.693799 22380 net.cpp:141] Setting up conv2
I0707 16:55:15.693812 22380 net.cpp:148] Top shape: 32 256 96 96 (75497472)
I0707 16:55:15.693816 22380 net.cpp:156] Memory required for data: 1604321280
I0707 16:55:15.693842 22380 layer_factory.hpp:77] Creating layer relu2
I0707 16:55:15.693858 22380 net.cpp:91] Creating Layer relu2
I0707 16:55:15.693866 22380 net.cpp:425] relu2 <- conv2
I0707 16:55:15.693879 22380 net.cpp:386] relu2 -> conv2 (in-place)
I0707 16:55:15.694016 22380 net.cpp:141] Setting up relu2
I0707 16:55:15.694026 22380 net.cpp:148] Top shape: 32 256 96 96 (75497472)
I0707 16:55:15.694030 22380 net.cpp:156] Memory required for data: 1906311168
I0707 16:55:15.694042 22380 layer_factory.hpp:77] Creating layer pool2
I0707 16:55:15.694072 22380 net.cpp:91] Creating Layer pool2
I0707 16:55:15.694080 22380 net.cpp:425] pool2 <- conv2
I0707 16:55:15.694097 22380 net.cpp:399] pool2 -> pool2
I0707 16:55:15.694154 22380 net.cpp:141] Setting up pool2
I0707 16:55:15.694165 22380 net.cpp:148] Top shape: 32 256 48 48 (18874368)
I0707 16:55:15.694169 22380 net.cpp:156] Memory required for data: 1981808640
I0707 16:55:15.694175 22380 layer_factory.hpp:77] Creating layer norm2
I0707 16:55:15.694190 22380 net.cpp:91] Creating Layer norm2
I0707 16:55:15.694198 22380 net.cpp:425] norm2 <- pool2
I0707 16:55:15.694212 22380 net.cpp:399] norm2 -> norm2
I0707 16:55:15.694471 22380 net.cpp:141] Setting up norm2
I0707 16:55:15.694484 22380 net.cpp:148] Top shape: 32 256 48 48 (18874368)
I0707 16:55:15.694489 22380 net.cpp:156] Memory required for data: 2057306112
I0707 16:55:15.694494 22380 layer_factory.hpp:77] Creating layer conv3
I0707 16:55:15.694515 22380 net.cpp:91] Creating Layer conv3
I0707 16:55:15.694524 22380 net.cpp:425] conv3 <- norm2
I0707 16:55:15.694540 22380 net.cpp:399] conv3 -> conv3
I0707 16:55:15.698683 22380 cudnn_conv_layer.cpp:194] Reallocating workspace storage: 48024
I0707 16:55:15.698719 22380 net.cpp:141] Setting up conv3
I0707 16:55:15.698731 22380 net.cpp:148] Top shape: 32 384 48 48 (28311552)
I0707 16:55:15.698735 22380 net.cpp:156] Memory required for data: 2170552320
I0707 16:55:15.698772 22380 layer_factory.hpp:77] Creating layer relu3
I0707 16:55:15.698794 22380 net.cpp:91] Creating Layer relu3
I0707 16:55:15.698803 22380 net.cpp:425] relu3 <- conv3
I0707 16:55:15.698820 22380 net.cpp:386] relu3 -> conv3 (in-place)
I0707 16:55:15.698964 22380 net.cpp:141] Setting up relu3
I0707 16:55:15.698974 22380 net.cpp:148] Top shape: 32 384 48 48 (28311552)
I0707 16:55:15.698978 22380 net.cpp:156] Memory required for data: 2283798528
I0707 16:55:15.698984 22380 layer_factory.hpp:77] Creating layer pool5
I0707 16:55:15.699002 22380 net.cpp:91] Creating Layer pool5
I0707 16:55:15.699009 22380 net.cpp:425] pool5 <- conv3
I0707 16:55:15.699025 22380 net.cpp:399] pool5 -> pool5
I0707 16:55:15.699080 22380 net.cpp:141] Setting up pool5
I0707 16:55:15.699091 22380 net.cpp:148] Top shape: 32 384 24 24 (7077888)
I0707 16:55:15.699095 22380 net.cpp:156] Memory required for data: 2312110080
I0707 16:55:15.699100 22380 layer_factory.hpp:77] Creating layer fc6_
I0707 16:55:15.699123 22380 net.cpp:91] Creating Layer fc6_
I0707 16:55:15.699131 22380 net.cpp:425] fc6_ <- pool5
I0707 16:55:15.699146 22380 net.cpp:399] fc6_ -> fc6_
I0707 16:55:18.353490 22380 cudnn_conv_layer.cpp:194] Reallocating workspace storage: 60660
I0707 16:55:18.353530 22380 net.cpp:141] Setting up fc6_
I0707 16:55:18.353544 22380 net.cpp:148] Top shape: 32 4096 19 19 (47316992)
I0707 16:55:18.353549 22380 net.cpp:156] Memory required for data: 2501378048
I0707 16:55:18.353572 22380 layer_factory.hpp:77] Creating layer relu6_
I0707 16:55:18.353600 22380 net.cpp:91] Creating Layer relu6_
I0707 16:55:18.353610 22380 net.cpp:425] relu6_ <- fc6_
I0707 16:55:18.353629 22380 net.cpp:386] relu6_ -> fc6_ (in-place)
I0707 16:55:18.353767 22380 net.cpp:141] Setting up relu6_
I0707 16:55:18.353776 22380 net.cpp:148] Top shape: 32 4096 19 19 (47316992)
I0707 16:55:18.353780 22380 net.cpp:156] Memory required for data: 2690646016
I0707 16:55:18.353785 22380 layer_factory.hpp:77] Creating layer drop6_
I0707 16:55:18.353804 22380 net.cpp:91] Creating Layer drop6_
I0707 16:55:18.353811 22380 net.cpp:425] drop6_ <- fc6_
I0707 16:55:18.353824 22380 net.cpp:386] drop6_ -> fc6_ (in-place)
I0707 16:55:18.353859 22380 net.cpp:141] Setting up drop6_
I0707 16:55:18.353868 22380 net.cpp:148] Top shape: 32 4096 19 19 (47316992)
I0707 16:55:18.353870 22380 net.cpp:156] Memory required for data: 2879913984
I0707 16:55:18.353879 22380 layer_factory.hpp:77] Creating layer fc7_
I0707 16:55:18.353909 22380 net.cpp:91] Creating Layer fc7_
I0707 16:55:18.353916 22380 net.cpp:425] fc7_ <- fc6_
I0707 16:55:18.353942 22380 net.cpp:399] fc7_ -> fc7_
I0707 16:55:19.129426 22380 cudnn_conv_layer.cpp:194] Reallocating workspace storage: 19500
I0707 16:55:19.129464 22380 net.cpp:141] Setting up fc7_
I0707 16:55:19.129477 22380 net.cpp:148] Top shape: 32 4096 19 19 (47316992)
I0707 16:55:19.129482 22380 net.cpp:156] Memory required for data: 3069181952
I0707 16:55:19.129521 22380 layer_factory.hpp:77] Creating layer relu7_
I0707 16:55:19.129549 22380 net.cpp:91] Creating Layer relu7_
I0707 16:55:19.129560 22380 net.cpp:425] relu7_ <- fc7_
I0707 16:55:19.129576 22380 net.cpp:386] relu7_ -> fc7_ (in-place)
I0707 16:55:19.129840 22380 net.cpp:141] Setting up relu7_
I0707 16:55:19.129853 22380 net.cpp:148] Top shape: 32 4096 19 19 (47316992)
I0707 16:55:19.129856 22380 net.cpp:156] Memory required for data: 3258449920
I0707 16:55:19.129863 22380 layer_factory.hpp:77] Creating layer drop7_
I0707 16:55:19.129878 22380 net.cpp:91] Creating Layer drop7_
I0707 16:55:19.129884 22380 net.cpp:425] drop7_ <- fc7_
I0707 16:55:19.129900 22380 net.cpp:386] drop7_ -> fc7_ (in-place)
I0707 16:55:19.129936 22380 net.cpp:141] Setting up drop7_
I0707 16:55:19.129945 22380 net.cpp:148] Top shape: 32 4096 19 19 (47316992)
I0707 16:55:19.129947 22380 net.cpp:156] Memory required for data: 3447717888
I0707 16:55:19.129952 22380 layer_factory.hpp:77] Creating layer score_fr
I0707 16:55:19.129978 22380 net.cpp:91] Creating Layer score_fr
I0707 16:55:19.129987 22380 net.cpp:425] score_fr <- fc7_
I0707 16:55:19.130002 22380 net.cpp:399] score_fr -> score_fr
I0707 16:55:19.131997 22380 cudnn_conv_layer.cpp:194] Reallocating workspace storage: 7212
I0707 16:55:19.132102 22380 net.cpp:141] Setting up score_fr
I0707 16:55:19.132113 22380 net.cpp:148] Top shape: 32 6 19 19 (69312)
I0707 16:55:19.132117 22380 net.cpp:156] Memory required for data: 3447995136
I0707 16:55:19.132134 22380 layer_factory.hpp:77] Creating layer upscore
I0707 16:55:19.132156 22380 net.cpp:91] Creating Layer upscore
I0707 16:55:19.132165 22380 net.cpp:425] upscore <- score_fr
I0707 16:55:19.132184 22380 net.cpp:399] upscore -> upscore
I0707 16:55:19.139230 22380 net.cpp:141] Setting up upscore
I0707 16:55:19.139258 22380 net.cpp:148] Top shape: 32 6 639 639 (78397632)
I0707 16:55:19.139262 22380 net.cpp:156] Memory required for data: 3761585664
I0707 16:55:19.139281 22380 layer_factory.hpp:77] Creating layer score
I0707 16:55:19.139312 22380 net.cpp:91] Creating Layer score
I0707 16:55:19.139322 22380 net.cpp:425] score <- upscore
I0707 16:55:19.139336 22380 net.cpp:425] score <- data_data_0_split_1
I0707 16:55:19.139351 22380 net.cpp:399] score -> score
I0707 16:55:19.139416 22380 net.cpp:141] Setting up score
I0707 16:55:19.139428 22380 net.cpp:148] Top shape: 32 6 576 576 (63700992)
I0707 16:55:19.139431 22380 net.cpp:156] Memory required for data: 4016389632
I0707 16:55:19.139436 22380 layer_factory.hpp:77] Creating layer loss_
I0707 16:55:19.139456 22380 net.cpp:91] Creating Layer loss_
I0707 16:55:19.139463 22380 net.cpp:425] loss_ <- score
I0707 16:55:19.139474 22380 net.cpp:425] loss_ <- label
I0707 16:55:19.139489 22380 net.cpp:399] loss_ -> loss_
…
