…
base_lr: 0.1
display: 1
max_iter: 100000
lr_policy: "fixed"
momentum: 0.9
weight_decay: 0.0005
snapshot: 4000
snapshot_prefix: "fcn"
device_id: 1
iter_size: 1
I0707 09:51:56.032301  4192 solver.cpp:81] Creating training net from train_net file: train.prototxt
I0707 09:51:56.033274  4192 net.cpp:49] Initializing net from parameters: 
name: "FCN32AlexNet"
state {
  phase: TRAIN
}
layer {
  name: "data"
  type: "ROOTData"
  top: "data"
  top: "label"
  root_data_param {
    batch_size: 32
    filler_config: "train_filler.cfg"
    filler_name: "Train"
  }
}
layer {
  name: "conv1"
  type: "Convolution"
  bottom: "data"
  top: "conv1"
  convolution_param {
    num_output: 96
    pad: 100
    kernel_size: 11
    group: 1
    stride: 4
  }
}
layer {
  name: "relu1"
  type: "ReLU"
  bottom: "conv1"
  top: "conv1"
}
layer {
  name: "pool1"
  type: "Pooling"
  bottom: "conv1"
  top: "pool1"
  pooling_param {
    pool: MAX
    kernel_size: 3
    stride: 2
  }
}
layer {
  name: "norm1"
  type: "LRN"
  bottom: "pool1"
  top: "norm1"
  lrn_param {
    local_size: 5
    alpha: 0.0001
    beta: 0.75
  }
}
layer {
  name: "conv2"
  type: "Convolution"
  bottom: "norm1"
  top: "conv2"
  convolution_param {
    num_output: 256
    pad: 2
    kernel_size: 5
    group: 2
    stride: 1
  }
}
layer {
  name: "relu2"
  type: "ReLU"
  bottom: "conv2"
  top: "conv2"
}
layer {
  name: "pool2"
  type: "Pooling"
  bottom: "conv2"
  top: "pool2"
  pooling_param {
    pool: MAX
    kernel_size: 3
    stride: 2
  }
}
layer {
  name: "norm2"
  type: "LRN"
  bottom: "pool2"
  top: "norm2"
  lrn_param {
    local_size: 5
    alpha: 0.0001
    beta: 0.75
  }
}
layer {
  name: "conv3"
  type: "Convolution"
  bottom: "norm2"
  top: "conv3"
  convolution_param {
    num_output: 384
    pad: 1
    kernel_size: 3
    group: 1
    stride: 1
  }
}
layer {
  name: "relu3"
  type: "ReLU"
  bottom: "conv3"
  top: "conv3"
}
layer {
  name: "pool5"
  type: "Pooling"
  bottom: "conv3"
  top: "pool5"
  pooling_param {
    pool: MAX
    kernel_size: 3
    stride: 2
  }
}
layer {
  name: "fc6_"
  type: "Convolution"
  bottom: "pool5"
  top: "fc6_"
  convolution_param {
    num_output: 4096
    pad: 0
    kernel_size: 6
    group: 1
    stride: 1
    weight_filler {
      type: "xavier"
    }
  }
}
layer {
  name: "relu6_"
  type: "ReLU"
  bottom: "fc6_"
  top: "fc6_"
}
layer {
  name: "drop6_"
  type: "Dropout"
  bottom: "fc6_"
  top: "fc6_"
  dropout_param {
    dropout_ratio: 0.5
  }
}
layer {
  name: "fc7_"
  type: "Convolution"
  bottom: "fc6_"
  top: "fc7_"
  convolution_param {
    num_output: 4096
    pad: 0
    kernel_size: 1
    group: 1
    stride: 1
    weight_filler {
      type: "xavier"
    }
  }
}
layer {
  name: "relu7_"
  type: "ReLU"
  bottom: "fc7_"
  top: "fc7_"
}
layer {
  name: "drop7_"
  type: "Dropout"
  bottom: "fc7_"
  top: "fc7_"
  dropout_param {
    dropout_ratio: 0.5
  }
}
layer {
  name: "score_fr"
  type: "Convolution"
  bottom: "fc7_"
  top: "score_fr"
  param {
    lr_mult: 1
    decay_mult: 1
  }
  param {
    lr_mult: 2
    decay_mult: 0
  }
  convolution_param {
    num_output: 6
    pad: 0
    kernel_size: 1
    weight_filler {
      type: "xavier"
    }
  }
}
layer {
  name: "upscore"
  type: "Deconvolution"
  bottom: "score_fr"
  top: "upscore"
  param {
    lr_mult: 1
    decay_mult: 1
  }
  convolution_param {
    num_output: 6
    bias_term: false
    kernel_size: 63
    stride: 32
    weight_filler {
      type: "xavier"
    }
  }
}
layer {
  name: "score"
  type: "Crop"
  bottom: "upscore"
  bottom: "data"
  top: "score"
  crop_param {
    axis: 2
    offset: 18
  }
}
layer {
  name: "loss_"
  type: "SoftmaxWithLoss"
  bottom: "score"
  bottom: "label"
  top: "loss_"
  loss_param {
    normalize: true
  }
}
I0707 09:51:56.034574  4192 layer_factory.hpp:77] Creating layer data
I0707 09:51:56.034633  4192 net.cpp:91] Creating Layer data
I0707 09:51:56.034660  4192 net.cpp:399] data -> data
I0707 09:51:56.034826  4192 net.cpp:399] data -> label
I0707 09:51:57.302206  4192 heproot.cpp:19] Queuing data... (1 sec.)
I0707 09:51:58.564285  4192 heproot.cpp:19] Queuing data... (2 sec.)
I0707 09:51:59.830211  4192 heproot.cpp:19] Queuing data... (3 sec.)
I0707 09:52:00.666040  4192 net.cpp:141] Setting up data
I0707 09:52:00.666093  4192 net.cpp:148] Top shape: 32 1 576 576 (10616832)
I0707 09:52:00.666103  4192 net.cpp:148] Top shape: 32 1 576 576 (10616832)
I0707 09:52:00.666115  4192 net.cpp:156] Memory required for data: 84934656
I0707 09:52:00.666142  4192 layer_factory.hpp:77] Creating layer data_data_0_split
I0707 09:52:00.666188  4192 net.cpp:91] Creating Layer data_data_0_split
I0707 09:52:00.666206  4192 net.cpp:425] data_data_0_split <- data
I0707 09:52:00.666244  4192 net.cpp:399] data_data_0_split -> data_data_0_split_0
I0707 09:52:00.666280  4192 net.cpp:399] data_data_0_split -> data_data_0_split_1
I0707 09:52:00.666328  4192 net.cpp:141] Setting up data_data_0_split
I0707 09:52:00.666342  4192 net.cpp:148] Top shape: 32 1 576 576 (10616832)
I0707 09:52:00.666353  4192 net.cpp:148] Top shape: 32 1 576 576 (10616832)
I0707 09:52:00.666359  4192 net.cpp:156] Memory required for data: 169869312
I0707 09:52:00.666366  4192 layer_factory.hpp:77] Creating layer conv1
I0707 09:52:00.666405  4192 net.cpp:91] Creating Layer conv1
I0707 09:52:00.666416  4192 net.cpp:425] conv1 <- data_data_0_split_0
I0707 09:52:00.666435  4192 net.cpp:399] conv1 -> conv1
I0707 09:52:00.856314  4192 cudnn_conv_layer.cpp:194] Reallocating workspace storage: 1452
I0707 09:52:00.856448  4192 net.cpp:141] Setting up conv1
I0707 09:52:00.856472  4192 net.cpp:148] Top shape: 32 96 192 192 (113246208)
I0707 09:52:00.856479  4192 net.cpp:156] Memory required for data: 622854144
I0707 09:52:00.856562  4192 layer_factory.hpp:77] Creating layer relu1
I0707 09:52:00.856600  4192 net.cpp:91] Creating Layer relu1
I0707 09:52:00.856613  4192 net.cpp:425] relu1 <- conv1
I0707 09:52:00.856636  4192 net.cpp:386] relu1 -> conv1 (in-place)
I0707 09:52:00.856876  4192 net.cpp:141] Setting up relu1
I0707 09:52:00.856891  4192 net.cpp:148] Top shape: 32 96 192 192 (113246208)
I0707 09:52:00.856897  4192 net.cpp:156] Memory required for data: 1075838976
I0707 09:52:00.856906  4192 layer_factory.hpp:77] Creating layer pool1
I0707 09:52:00.856935  4192 net.cpp:91] Creating Layer pool1
I0707 09:52:00.856945  4192 net.cpp:425] pool1 <- conv1
I0707 09:52:00.856964  4192 net.cpp:399] pool1 -> pool1
I0707 09:52:00.857029  4192 net.cpp:141] Setting up pool1
I0707 09:52:00.857044  4192 net.cpp:148] Top shape: 32 96 96 96 (28311552)
I0707 09:52:00.857050  4192 net.cpp:156] Memory required for data: 1189085184
I0707 09:52:00.857058  4192 layer_factory.hpp:77] Creating layer norm1
I0707 09:52:00.857084  4192 net.cpp:91] Creating Layer norm1
I0707 09:52:00.857095  4192 net.cpp:425] norm1 <- pool1
I0707 09:52:00.857111  4192 net.cpp:399] norm1 -> norm1
I0707 09:52:00.857275  4192 net.cpp:141] Setting up norm1
I0707 09:52:00.857290  4192 net.cpp:148] Top shape: 32 96 96 96 (28311552)
I0707 09:52:00.857296  4192 net.cpp:156] Memory required for data: 1302331392
I0707 09:52:00.857306  4192 layer_factory.hpp:77] Creating layer conv2
I0707 09:52:00.857331  4192 net.cpp:91] Creating Layer conv2
I0707 09:52:00.857341  4192 net.cpp:425] conv2 <- norm1
I0707 09:52:00.857358  4192 net.cpp:399] conv2 -> conv2
I0707 09:52:00.859536  4192 cudnn_conv_layer.cpp:194] Reallocating workspace storage: 344880
I0707 09:52:00.859647  4192 net.cpp:141] Setting up conv2
I0707 09:52:00.859663  4192 net.cpp:148] Top shape: 32 256 96 96 (75497472)
I0707 09:52:00.859669  4192 net.cpp:156] Memory required for data: 1604321280
I0707 09:52:00.859696  4192 layer_factory.hpp:77] Creating layer relu2
I0707 09:52:00.859715  4192 net.cpp:91] Creating Layer relu2
I0707 09:52:00.859725  4192 net.cpp:425] relu2 <- conv2
I0707 09:52:00.859742  4192 net.cpp:386] relu2 -> conv2 (in-place)
I0707 09:52:00.859875  4192 net.cpp:141] Setting up relu2
I0707 09:52:00.859889  4192 net.cpp:148] Top shape: 32 256 96 96 (75497472)
I0707 09:52:00.859917  4192 net.cpp:156] Memory required for data: 1906311168
I0707 09:52:00.859926  4192 layer_factory.hpp:77] Creating layer pool2
I0707 09:52:00.859947  4192 net.cpp:91] Creating Layer pool2
I0707 09:52:00.859957  4192 net.cpp:425] pool2 <- conv2
I0707 09:52:00.859977  4192 net.cpp:399] pool2 -> pool2
I0707 09:52:00.860034  4192 net.cpp:141] Setting up pool2
I0707 09:52:00.860049  4192 net.cpp:148] Top shape: 32 256 48 48 (18874368)
I0707 09:52:00.860055  4192 net.cpp:156] Memory required for data: 1981808640
I0707 09:52:00.860062  4192 layer_factory.hpp:77] Creating layer norm2
I0707 09:52:00.860080  4192 net.cpp:91] Creating Layer norm2
I0707 09:52:00.860090  4192 net.cpp:425] norm2 <- pool2
I0707 09:52:00.860106  4192 net.cpp:399] norm2 -> norm2
I0707 09:52:00.860369  4192 net.cpp:141] Setting up norm2
I0707 09:52:00.860386  4192 net.cpp:148] Top shape: 32 256 48 48 (18874368)
I0707 09:52:00.860394  4192 net.cpp:156] Memory required for data: 2057306112
I0707 09:52:00.860402  4192 layer_factory.hpp:77] Creating layer conv3
I0707 09:52:00.860422  4192 net.cpp:91] Creating Layer conv3
I0707 09:52:00.860433  4192 net.cpp:425] conv3 <- norm2
I0707 09:52:00.860453  4192 net.cpp:399] conv3 -> conv3
I0707 09:52:00.864262  4192 cudnn_conv_layer.cpp:194] Reallocating workspace storage: 48024
I0707 09:52:00.864290  4192 net.cpp:141] Setting up conv3
I0707 09:52:00.864301  4192 net.cpp:148] Top shape: 32 384 48 48 (28311552)
I0707 09:52:00.864308  4192 net.cpp:156] Memory required for data: 2170552320
I0707 09:52:00.864332  4192 layer_factory.hpp:77] Creating layer relu3
I0707 09:52:00.864352  4192 net.cpp:91] Creating Layer relu3
I0707 09:52:00.864363  4192 net.cpp:425] relu3 <- conv3
I0707 09:52:00.864380  4192 net.cpp:386] relu3 -> conv3 (in-place)
I0707 09:52:00.864526  4192 net.cpp:141] Setting up relu3
I0707 09:52:00.864540  4192 net.cpp:148] Top shape: 32 384 48 48 (28311552)
I0707 09:52:00.864549  4192 net.cpp:156] Memory required for data: 2283798528
I0707 09:52:00.864558  4192 layer_factory.hpp:77] Creating layer pool5
I0707 09:52:00.864575  4192 net.cpp:91] Creating Layer pool5
I0707 09:52:00.864585  4192 net.cpp:425] pool5 <- conv3
I0707 09:52:00.864605  4192 net.cpp:399] pool5 -> pool5
I0707 09:52:00.864663  4192 net.cpp:141] Setting up pool5
I0707 09:52:00.864677  4192 net.cpp:148] Top shape: 32 384 24 24 (7077888)
I0707 09:52:00.864683  4192 net.cpp:156] Memory required for data: 2312110080
I0707 09:52:00.864691  4192 layer_factory.hpp:77] Creating layer fc6_
I0707 09:52:00.864713  4192 net.cpp:91] Creating Layer fc6_
I0707 09:52:00.864723  4192 net.cpp:425] fc6_ <- pool5
I0707 09:52:00.864742  4192 net.cpp:399] fc6_ -> fc6_
I0707 09:52:03.459615  4192 cudnn_conv_layer.cpp:194] Reallocating workspace storage: 60660
I0707 09:52:03.459661  4192 net.cpp:141] Setting up fc6_
I0707 09:52:03.459677  4192 net.cpp:148] Top shape: 32 4096 19 19 (47316992)
I0707 09:52:03.459683  4192 net.cpp:156] Memory required for data: 2501378048
I0707 09:52:03.459708  4192 layer_factory.hpp:77] Creating layer relu6_
I0707 09:52:03.459744  4192 net.cpp:91] Creating Layer relu6_
I0707 09:52:03.459758  4192 net.cpp:425] relu6_ <- fc6_
I0707 09:52:03.459784  4192 net.cpp:386] relu6_ -> fc6_ (in-place)
I0707 09:52:03.459935  4192 net.cpp:141] Setting up relu6_
I0707 09:52:03.459949  4192 net.cpp:148] Top shape: 32 4096 19 19 (47316992)
I0707 09:52:03.459954  4192 net.cpp:156] Memory required for data: 2690646016
I0707 09:52:03.459961  4192 layer_factory.hpp:77] Creating layer drop6_
I0707 09:52:03.459983  4192 net.cpp:91] Creating Layer drop6_
I0707 09:52:03.459993  4192 net.cpp:425] drop6_ <- fc6_
I0707 09:52:03.460011  4192 net.cpp:386] drop6_ -> fc6_ (in-place)
I0707 09:52:03.460050  4192 net.cpp:141] Setting up drop6_
I0707 09:52:03.460062  4192 net.cpp:148] Top shape: 32 4096 19 19 (47316992)
I0707 09:52:03.460067  4192 net.cpp:156] Memory required for data: 2879913984
I0707 09:52:03.460074  4192 layer_factory.hpp:77] Creating layer fc7_
I0707 09:52:03.460108  4192 net.cpp:91] Creating Layer fc7_
I0707 09:52:03.460137  4192 net.cpp:425] fc7_ <- fc6_
I0707 09:52:03.460157  4192 net.cpp:399] fc7_ -> fc7_
I0707 09:52:04.230687  4192 cudnn_conv_layer.cpp:194] Reallocating workspace storage: 19500
I0707 09:52:04.230728  4192 net.cpp:141] Setting up fc7_
I0707 09:52:04.230746  4192 net.cpp:148] Top shape: 32 4096 19 19 (47316992)
I0707 09:52:04.230752  4192 net.cpp:156] Memory required for data: 3069181952
I0707 09:52:04.230793  4192 layer_factory.hpp:77] Creating layer relu7_
I0707 09:52:04.230823  4192 net.cpp:91] Creating Layer relu7_
I0707 09:52:04.230836  4192 net.cpp:425] relu7_ <- fc7_
I0707 09:52:04.230859  4192 net.cpp:386] relu7_ -> fc7_ (in-place)
I0707 09:52:04.231127  4192 net.cpp:141] Setting up relu7_
I0707 09:52:04.231142  4192 net.cpp:148] Top shape: 32 4096 19 19 (47316992)
I0707 09:52:04.231148  4192 net.cpp:156] Memory required for data: 3258449920
I0707 09:52:04.231154  4192 layer_factory.hpp:77] Creating layer drop7_
I0707 09:52:04.231178  4192 net.cpp:91] Creating Layer drop7_
I0707 09:52:04.231189  4192 net.cpp:425] drop7_ <- fc7_
I0707 09:52:04.231206  4192 net.cpp:386] drop7_ -> fc7_ (in-place)
I0707 09:52:04.231246  4192 net.cpp:141] Setting up drop7_
I0707 09:52:04.231259  4192 net.cpp:148] Top shape: 32 4096 19 19 (47316992)
I0707 09:52:04.231264  4192 net.cpp:156] Memory required for data: 3447717888
I0707 09:52:04.231271  4192 layer_factory.hpp:77] Creating layer score_fr
I0707 09:52:04.231298  4192 net.cpp:91] Creating Layer score_fr
I0707 09:52:04.231309  4192 net.cpp:425] score_fr <- fc7_
I0707 09:52:04.231328  4192 net.cpp:399] score_fr -> score_fr
I0707 09:52:04.233319  4192 cudnn_conv_layer.cpp:194] Reallocating workspace storage: 7212
I0707 09:52:04.233429  4192 net.cpp:141] Setting up score_fr
I0707 09:52:04.233445  4192 net.cpp:148] Top shape: 32 6 19 19 (69312)
I0707 09:52:04.233451  4192 net.cpp:156] Memory required for data: 3447995136
I0707 09:52:04.233469  4192 layer_factory.hpp:77] Creating layer upscore
I0707 09:52:04.233494  4192 net.cpp:91] Creating Layer upscore
I0707 09:52:04.233503  4192 net.cpp:425] upscore <- score_fr
I0707 09:52:04.233525  4192 net.cpp:399] upscore -> upscore
I0707 09:52:04.240437  4192 net.cpp:141] Setting up upscore
I0707 09:52:04.240455  4192 net.cpp:148] Top shape: 32 6 639 639 (78397632)
I0707 09:52:04.240460  4192 net.cpp:156] Memory required for data: 3761585664
I0707 09:52:04.240473  4192 layer_factory.hpp:77] Creating layer score
I0707 09:52:04.240496  4192 net.cpp:91] Creating Layer score
I0707 09:52:04.240506  4192 net.cpp:425] score <- upscore
I0707 09:52:04.240520  4192 net.cpp:425] score <- data_data_0_split_1
I0707 09:52:04.240535  4192 net.cpp:399] score -> score
I0707 09:52:04.240599  4192 net.cpp:141] Setting up score
I0707 09:52:04.240614  4192 net.cpp:148] Top shape: 32 6 576 576 (63700992)
I0707 09:52:04.240624  4192 net.cpp:156] Memory required for data: 4016389632
I0707 09:52:04.240631  4192 layer_factory.hpp:77] Creating layer loss_
I0707 09:52:04.240653  4192 net.cpp:91] Creating Layer loss_
I0707 09:52:04.240661  4192 net.cpp:425] loss_ <- score
I0707 09:52:04.240674  4192 net.cpp:425] loss_ <- label
I0707 09:52:04.240690  4192 net.cpp:399] loss_ -> loss_
…
