…
base_lr: 0.01
display: 1
max_iter: 100000
lr_policy: "fixed"
momentum: 0.9
weight_decay: 0.0005
snapshot: 4000
snapshot_prefix: "fcn"
device_id: 3
iter_size: 1
I0711 12:43:34.256377 30142 solver.cpp:81] Creating training net from train_net file: train.prototxt
I0711 12:43:34.257499 30142 net.cpp:49] Initializing net from parameters: 
name: "FCN32AlexNet"
state {
  phase: TRAIN
}
layer {
  name: "data"
  type: "ROOTData"
  top: "data"
  top: "label"
  root_data_param {
    batch_size: 8
    filler_config: "train_filler.cfg"
    filler_name: "Train"
  }
}
layer {
  name: "conv1"
  type: "Convolution"
  bottom: "data"
  top: "conv1"
  convolution_param {
    num_output: 96
    pad: 100
    kernel_size: 11
    group: 1
    stride: 4
  }
}
layer {
  name: "relu1"
  type: "ReLU"
  bottom: "conv1"
  top: "conv1"
}
layer {
  name: "pool1"
  type: "Pooling"
  bottom: "conv1"
  top: "pool1"
  pooling_param {
    pool: MAX
    kernel_size: 3
    stride: 2
  }
}
layer {
  name: "norm1"
  type: "LRN"
  bottom: "pool1"
  top: "norm1"
  lrn_param {
    local_size: 5
    alpha: 0.0001
    beta: 0.75
  }
}
layer {
  name: "conv2"
  type: "Convolution"
  bottom: "norm1"
  top: "conv2"
  convolution_param {
    num_output: 256
    pad: 2
    kernel_size: 5
    group: 2
    stride: 1
  }
}
layer {
  name: "relu2"
  type: "ReLU"
  bottom: "conv2"
  top: "conv2"
}
layer {
  name: "pool2"
  type: "Pooling"
  bottom: "conv2"
  top: "pool2"
  pooling_param {
    pool: MAX
    kernel_size: 3
    stride: 1
  }
}
layer {
  name: "norm2"
  type: "LRN"
  bottom: "pool2"
  top: "norm2"
  lrn_param {
    local_size: 5
    alpha: 0.0001
    beta: 0.75
  }
}
layer {
  name: "conv3"
  type: "Convolution"
  bottom: "norm2"
  top: "conv3"
  convolution_param {
    num_output: 384
    pad: 1
    kernel_size: 3
    group: 1
    stride: 1
  }
}
layer {
  name: "relu3"
  type: "ReLU"
  bottom: "conv3"
  top: "conv3"
}
layer {
  name: "conv4"
  type: "Convolution"
  bottom: "conv3"
  top: "conv4"
  convolution_param {
    num_output: 384
    pad: 1
    kernel_size: 3
    group: 2
    stride: 1
  }
}
layer {
  name: "relu4"
  type: "ReLU"
  bottom: "conv4"
  top: "conv4"
}
layer {
  name: "conv5"
  type: "Convolution"
  bottom: "conv4"
  top: "conv5"
  convolution_param {
    num_output: 256
    pad: 1
    kernel_size: 3
    group: 2
    stride: 1
  }
}
layer {
  name: "relu5"
  type: "ReLU"
  bottom: "conv5"
  top: "conv5"
}
layer {
  name: "pool5"
  type: "Pooling"
  bottom: "conv5"
  top: "pool5"
  pooling_param {
    pool: MAX
    kernel_size: 3
    stride: 1
  }
}
layer {
  name: "fc6_"
  type: "Convolution"
  bottom: "pool5"
  top: "fc6_"
  convolution_param {
    num_output: 4096
    pad: 0
    kernel_size: 6
    group: 1
    stride: 1
    weight_filler {
      type: "xavier"
    }
  }
}
layer {
  name: "relu6_"
  type: "ReLU"
  bottom: "fc6_"
  top: "fc6_"
}
layer {
  name: "drop6_"
  type: "Dropout"
  bottom: "fc6_"
  top: "fc6_"
  dropout_param {
    dropout_ratio: 0.5
  }
}
layer {
  name: "fc7_"
  type: "Convolution"
  bottom: "fc6_"
  top: "fc7_"
  convolution_param {
    num_output: 4096
    pad: 0
    kernel_size: 1
    group: 1
    stride: 1
    weight_filler {
      type: "xavier"
    }
  }
}
layer {
  name: "relu7_"
  type: "ReLU"
  bottom: "fc7_"
  top: "fc7_"
}
layer {
  name: "drop7_"
  type: "Dropout"
  bottom: "fc7_"
  top: "fc7_"
  dropout_param {
    dropout_ratio: 0.5
  }
}
layer {
  name: "score_fr"
  type: "Convolution"
  bottom: "fc7_"
  top: "score_fr"
  param {
    lr_mult: 1
    decay_mult: 1
  }
  param {
    lr_mult: 2
    decay_mult: 0
  }
  convolution_param {
    num_output: 6
    pad: 0
    kernel_size: 1
    weight_filler {
      type: "xavier"
    }
  }
}
layer {
  name: "upscore2"
  type: "Deconvolution"
  bottom: "score_fr"
  top: "upscore2"
  param {
    lr_mult: 1
    decay_mult: 1
  }
  convolution_param {
    num_output: 6
    bias_term: false
    kernel_size: 2
    stride: 1
    weight_filler {
      type: "xavier"
    }
  }
}
layer {
  name: "score_pool2"
  type: "Convolution"
  bottom: "norm2"
  top: "score_pool2"
  param {
    lr_mult: 1
    decay_mult: 1
  }
  param {
    lr_mult: 2
    decay_mult: 0
  }
  convolution_param {
    num_output: 6
    pad: 0
    kernel_size: 1
    weight_filler {
      type: "xavier"
    }
  }
}
layer {
  name: "score_pool2c"
  type: "Crop"
  bottom: "score_pool2"
  bottom: "upscore2"
  top: "score_pool2c"
  crop_param {
    axis: 2
    offset: 4
  }
}
layer {
  name: "fuse_pool2"
  type: "Eltwise"
  bottom: "upscore2"
  bottom: "score_pool2c"
  top: "fuse_pool2"
  eltwise_param {
    operation: SUM
  }
}
layer {
  name: "upscore8"
  type: "Deconvolution"
  bottom: "fuse_pool2"
  top: "upscore8"
  param {
    lr_mult: 1
  }
  convolution_param {
    num_output: 6
    bias_term: false
    kernel_size: 16
    stride: 8
    weight_filler {
      type: "xavier"
    }
  }
}
layer {
  name: "score"
  type: "Crop"
  bottom: "upscore8"
  bottom: "data"
  top: "score"
  crop_param {
    axis: 2
    offset: 27
  }
}
layer {
  name: "loss_"
  type: "SoftmaxWithLoss"
  bottom: "score"
  bottom: "label"
  top: "loss_"
  loss_param {
    normalize: true
  }
}
I0711 12:43:34.258108 30142 layer_factory.hpp:77] Creating layer data
I0711 12:43:34.258157 30142 net.cpp:91] Creating Layer data
I0711 12:43:34.258177 30142 net.cpp:399] data -> data
I0711 12:43:34.258301 30142 net.cpp:399] data -> label
I0711 12:43:35.541771 30142 heproot.cpp:19] Queuing data... (1 sec.)
I0711 12:43:36.822803 30142 heproot.cpp:19] Queuing data... (2 sec.)
I0711 12:43:38.093397 30142 heproot.cpp:19] Queuing data... (3 sec.)
I0711 12:43:39.388762 30142 heproot.cpp:19] Queuing data... (4 sec.)
I0711 12:43:40.682205 30142 heproot.cpp:19] Queuing data... (5 sec.)
I0711 12:43:41.397236 30142 net.cpp:141] Setting up data
I0711 12:43:41.397290 30142 net.cpp:148] Top shape: 8 1 576 576 (2654208)
I0711 12:43:41.397301 30142 net.cpp:148] Top shape: 8 1 576 576 (2654208)
I0711 12:43:41.397306 30142 net.cpp:156] Memory required for data: 21233664
I0711 12:43:41.397332 30142 layer_factory.hpp:77] Creating layer data_data_0_split
I0711 12:43:41.397380 30142 net.cpp:91] Creating Layer data_data_0_split
I0711 12:43:41.397399 30142 net.cpp:425] data_data_0_split <- data
I0711 12:43:41.397441 30142 net.cpp:399] data_data_0_split -> data_data_0_split_0
I0711 12:43:41.397482 30142 net.cpp:399] data_data_0_split -> data_data_0_split_1
I0711 12:43:41.397548 30142 net.cpp:141] Setting up data_data_0_split
I0711 12:43:41.397564 30142 net.cpp:148] Top shape: 8 1 576 576 (2654208)
I0711 12:43:41.397577 30142 net.cpp:148] Top shape: 8 1 576 576 (2654208)
I0711 12:43:41.397581 30142 net.cpp:156] Memory required for data: 42467328
I0711 12:43:41.397588 30142 layer_factory.hpp:77] Creating layer conv1
I0711 12:43:41.397635 30142 net.cpp:91] Creating Layer conv1
I0711 12:43:41.397645 30142 net.cpp:425] conv1 <- data_data_0_split_0
I0711 12:43:41.397668 30142 net.cpp:399] conv1 -> conv1
I0711 12:43:42.873780 30142 cudnn_conv_layer.cpp:194] Reallocating workspace storage: 1452
I0711 12:43:42.873908 30142 net.cpp:141] Setting up conv1
I0711 12:43:42.873926 30142 net.cpp:148] Top shape: 8 96 192 192 (28311552)
I0711 12:43:42.873930 30142 net.cpp:156] Memory required for data: 155713536
I0711 12:43:42.874004 30142 layer_factory.hpp:77] Creating layer relu1
I0711 12:43:42.874037 30142 net.cpp:91] Creating Layer relu1
I0711 12:43:42.874047 30142 net.cpp:425] relu1 <- conv1
I0711 12:43:42.874068 30142 net.cpp:386] relu1 -> conv1 (in-place)
I0711 12:43:42.874302 30142 net.cpp:141] Setting up relu1
I0711 12:43:42.874313 30142 net.cpp:148] Top shape: 8 96 192 192 (28311552)
I0711 12:43:42.874317 30142 net.cpp:156] Memory required for data: 268959744
I0711 12:43:42.874325 30142 layer_factory.hpp:77] Creating layer pool1
I0711 12:43:42.874349 30142 net.cpp:91] Creating Layer pool1
I0711 12:43:42.874357 30142 net.cpp:425] pool1 <- conv1
I0711 12:43:42.874372 30142 net.cpp:399] pool1 -> pool1
I0711 12:43:42.874441 30142 net.cpp:141] Setting up pool1
I0711 12:43:42.874464 30142 net.cpp:148] Top shape: 8 96 96 96 (7077888)
I0711 12:43:42.874467 30142 net.cpp:156] Memory required for data: 297271296
I0711 12:43:42.874474 30142 layer_factory.hpp:77] Creating layer norm1
I0711 12:43:42.874496 30142 net.cpp:91] Creating Layer norm1
I0711 12:43:42.874503 30142 net.cpp:425] norm1 <- pool1
I0711 12:43:42.874517 30142 net.cpp:399] norm1 -> norm1
I0711 12:43:42.874675 30142 net.cpp:141] Setting up norm1
I0711 12:43:42.874686 30142 net.cpp:148] Top shape: 8 96 96 96 (7077888)
I0711 12:43:42.874691 30142 net.cpp:156] Memory required for data: 325582848
I0711 12:43:42.874696 30142 layer_factory.hpp:77] Creating layer conv2
I0711 12:43:42.874717 30142 net.cpp:91] Creating Layer conv2
I0711 12:43:42.874723 30142 net.cpp:425] conv2 <- norm1
I0711 12:43:42.874738 30142 net.cpp:399] conv2 -> conv2
I0711 12:43:42.878808 30142 cudnn_conv_layer.cpp:194] Reallocating workspace storage: 344880
I0711 12:43:42.878921 30142 net.cpp:141] Setting up conv2
I0711 12:43:42.878933 30142 net.cpp:148] Top shape: 8 256 96 96 (18874368)
I0711 12:43:42.878937 30142 net.cpp:156] Memory required for data: 401080320
I0711 12:43:42.878967 30142 layer_factory.hpp:77] Creating layer relu2
I0711 12:43:42.878983 30142 net.cpp:91] Creating Layer relu2
I0711 12:43:42.878991 30142 net.cpp:425] relu2 <- conv2
I0711 12:43:42.879004 30142 net.cpp:386] relu2 -> conv2 (in-place)
I0711 12:43:42.879137 30142 net.cpp:141] Setting up relu2
I0711 12:43:42.879148 30142 net.cpp:148] Top shape: 8 256 96 96 (18874368)
I0711 12:43:42.879151 30142 net.cpp:156] Memory required for data: 476577792
I0711 12:43:42.879159 30142 layer_factory.hpp:77] Creating layer pool2
I0711 12:43:42.879179 30142 net.cpp:91] Creating Layer pool2
I0711 12:43:42.879186 30142 net.cpp:425] pool2 <- conv2
I0711 12:43:42.879200 30142 net.cpp:399] pool2 -> pool2
I0711 12:43:42.879256 30142 net.cpp:141] Setting up pool2
I0711 12:43:42.879267 30142 net.cpp:148] Top shape: 8 256 94 94 (18096128)
I0711 12:43:42.879271 30142 net.cpp:156] Memory required for data: 548962304
I0711 12:43:42.879276 30142 layer_factory.hpp:77] Creating layer norm2
I0711 12:43:42.879292 30142 net.cpp:91] Creating Layer norm2
I0711 12:43:42.879299 30142 net.cpp:425] norm2 <- pool2
I0711 12:43:42.879312 30142 net.cpp:399] norm2 -> norm2
I0711 12:43:42.879564 30142 net.cpp:141] Setting up norm2
I0711 12:43:42.879577 30142 net.cpp:148] Top shape: 8 256 94 94 (18096128)
I0711 12:43:42.879580 30142 net.cpp:156] Memory required for data: 621346816
I0711 12:43:42.879586 30142 layer_factory.hpp:77] Creating layer norm2_norm2_0_split
I0711 12:43:42.879598 30142 net.cpp:91] Creating Layer norm2_norm2_0_split
I0711 12:43:42.879604 30142 net.cpp:425] norm2_norm2_0_split <- norm2
I0711 12:43:42.879618 30142 net.cpp:399] norm2_norm2_0_split -> norm2_norm2_0_split_0
I0711 12:43:42.879633 30142 net.cpp:399] norm2_norm2_0_split -> norm2_norm2_0_split_1
I0711 12:43:42.879674 30142 net.cpp:141] Setting up norm2_norm2_0_split
I0711 12:43:42.879684 30142 net.cpp:148] Top shape: 8 256 94 94 (18096128)
I0711 12:43:42.879688 30142 net.cpp:148] Top shape: 8 256 94 94 (18096128)
I0711 12:43:42.879691 30142 net.cpp:156] Memory required for data: 766115840
I0711 12:43:42.879696 30142 layer_factory.hpp:77] Creating layer conv3
I0711 12:43:42.879715 30142 net.cpp:91] Creating Layer conv3
I0711 12:43:42.879722 30142 net.cpp:425] conv3 <- norm2_norm2_0_split_0
I0711 12:43:42.879736 30142 net.cpp:399] conv3 -> conv3
I0711 12:43:42.883255 30142 cudnn_conv_layer.cpp:194] Reallocating workspace storage: 165600
I0711 12:43:42.883368 30142 net.cpp:141] Setting up conv3
I0711 12:43:42.883381 30142 net.cpp:148] Top shape: 8 384 94 94 (27144192)
I0711 12:43:42.883385 30142 net.cpp:156] Memory required for data: 874692608
I0711 12:43:42.883417 30142 layer_factory.hpp:77] Creating layer relu3
I0711 12:43:42.883435 30142 net.cpp:91] Creating Layer relu3
I0711 12:43:42.883445 30142 net.cpp:425] relu3 <- conv3
I0711 12:43:42.883458 30142 net.cpp:386] relu3 -> conv3 (in-place)
I0711 12:43:42.883604 30142 net.cpp:141] Setting up relu3
I0711 12:43:42.883622 30142 net.cpp:148] Top shape: 8 384 94 94 (27144192)
I0711 12:43:42.883625 30142 net.cpp:156] Memory required for data: 983269376
I0711 12:43:42.883633 30142 layer_factory.hpp:77] Creating layer conv4
I0711 12:43:42.883653 30142 net.cpp:91] Creating Layer conv4
I0711 12:43:42.883661 30142 net.cpp:425] conv4 <- conv3
I0711 12:43:42.883676 30142 net.cpp:399] conv4 -> conv4
I0711 12:43:42.886771 30142 cudnn_conv_layer.cpp:194] Reallocating workspace storage: 331200
I0711 12:43:42.886806 30142 net.cpp:141] Setting up conv4
I0711 12:43:42.886816 30142 net.cpp:148] Top shape: 8 384 94 94 (27144192)
I0711 12:43:42.886819 30142 net.cpp:156] Memory required for data: 1091846144
I0711 12:43:42.886837 30142 layer_factory.hpp:77] Creating layer relu4
I0711 12:43:42.886855 30142 net.cpp:91] Creating Layer relu4
I0711 12:43:42.886863 30142 net.cpp:425] relu4 <- conv4
I0711 12:43:42.886878 30142 net.cpp:386] relu4 -> conv4 (in-place)
I0711 12:43:42.887012 30142 net.cpp:141] Setting up relu4
I0711 12:43:42.887022 30142 net.cpp:148] Top shape: 8 384 94 94 (27144192)
I0711 12:43:42.887024 30142 net.cpp:156] Memory required for data: 1200422912
I0711 12:43:42.887029 30142 layer_factory.hpp:77] Creating layer conv5
I0711 12:43:42.887048 30142 net.cpp:91] Creating Layer conv5
I0711 12:43:42.887055 30142 net.cpp:425] conv5 <- conv4
I0711 12:43:42.887070 30142 net.cpp:399] conv5 -> conv5
I0711 12:43:42.889669 30142 cudnn_conv_layer.cpp:194] Reallocating workspace storage: 331200
I0711 12:43:42.889699 30142 net.cpp:141] Setting up conv5
I0711 12:43:42.889708 30142 net.cpp:148] Top shape: 8 256 94 94 (18096128)
I0711 12:43:42.889713 30142 net.cpp:156] Memory required for data: 1272807424
I0711 12:43:42.889739 30142 layer_factory.hpp:77] Creating layer relu5
I0711 12:43:42.889760 30142 net.cpp:91] Creating Layer relu5
I0711 12:43:42.889767 30142 net.cpp:425] relu5 <- conv5
I0711 12:43:42.889782 30142 net.cpp:386] relu5 -> conv5 (in-place)
I0711 12:43:42.889919 30142 net.cpp:141] Setting up relu5
I0711 12:43:42.889930 30142 net.cpp:148] Top shape: 8 256 94 94 (18096128)
I0711 12:43:42.889933 30142 net.cpp:156] Memory required for data: 1345191936
I0711 12:43:42.889940 30142 layer_factory.hpp:77] Creating layer pool5
I0711 12:43:42.889956 30142 net.cpp:91] Creating Layer pool5
I0711 12:43:42.889963 30142 net.cpp:425] pool5 <- conv5
I0711 12:43:42.889977 30142 net.cpp:399] pool5 -> pool5
I0711 12:43:42.890034 30142 net.cpp:141] Setting up pool5
I0711 12:43:42.890044 30142 net.cpp:148] Top shape: 8 256 92 92 (17334272)
I0711 12:43:42.890048 30142 net.cpp:156] Memory required for data: 1414529024
I0711 12:43:42.890053 30142 layer_factory.hpp:77] Creating layer fc6_
I0711 12:43:42.890072 30142 net.cpp:91] Creating Layer fc6_
I0711 12:43:42.890079 30142 net.cpp:425] fc6_ <- pool5
I0711 12:43:42.890096 30142 net.cpp:399] fc6_ -> fc6_
I0711 12:43:44.621763 30142 cudnn_conv_layer.cpp:194] Reallocating workspace storage: 136260
I0711 12:43:44.621811 30142 net.cpp:141] Setting up fc6_
I0711 12:43:44.621827 30142 net.cpp:148] Top shape: 8 4096 87 87 (248020992)
I0711 12:43:44.621830 30142 net.cpp:156] Memory required for data: 2406612992
I0711 12:43:44.621853 30142 layer_factory.hpp:77] Creating layer relu6_
I0711 12:43:44.621879 30142 net.cpp:91] Creating Layer relu6_
I0711 12:43:44.621891 30142 net.cpp:425] relu6_ <- fc6_
I0711 12:43:44.621915 30142 net.cpp:386] relu6_ -> fc6_ (in-place)
I0711 12:43:44.622155 30142 net.cpp:141] Setting up relu6_
I0711 12:43:44.622167 30142 net.cpp:148] Top shape: 8 4096 87 87 (248020992)
I0711 12:43:44.622170 30142 net.cpp:156] Memory required for data: 3398696960
I0711 12:43:44.622176 30142 layer_factory.hpp:77] Creating layer drop6_
I0711 12:43:44.622195 30142 net.cpp:91] Creating Layer drop6_
I0711 12:43:44.622202 30142 net.cpp:425] drop6_ <- fc6_
I0711 12:43:44.622217 30142 net.cpp:386] drop6_ -> fc6_ (in-place)
I0711 12:43:44.622257 30142 net.cpp:141] Setting up drop6_
I0711 12:43:44.622265 30142 net.cpp:148] Top shape: 8 4096 87 87 (248020992)
I0711 12:43:44.622274 30142 net.cpp:156] Memory required for data: 4390780928
I0711 12:43:44.622288 30142 layer_factory.hpp:77] Creating layer fc7_
I0711 12:43:44.622313 30142 net.cpp:91] Creating Layer fc7_
I0711 12:43:44.622319 30142 net.cpp:425] fc7_ <- fc6_
I0711 12:43:44.622334 30142 net.cpp:399] fc7_ -> fc7_
I0711 12:43:45.393982 30142 cudnn_conv_layer.cpp:194] Reallocating workspace storage: 136260
I0711 12:43:45.394028 30142 net.cpp:141] Setting up fc7_
I0711 12:43:45.394043 30142 net.cpp:148] Top shape: 8 4096 87 87 (248020992)
I0711 12:43:45.394047 30142 net.cpp:156] Memory required for data: 5382864896
I0711 12:43:45.394070 30142 layer_factory.hpp:77] Creating layer relu7_
I0711 12:43:45.394098 30142 net.cpp:91] Creating Layer relu7_
I0711 12:43:45.394109 30142 net.cpp:425] relu7_ <- fc7_
I0711 12:43:45.394129 30142 net.cpp:386] relu7_ -> fc7_ (in-place)
I0711 12:43:45.394274 30142 net.cpp:141] Setting up relu7_
I0711 12:43:45.394284 30142 net.cpp:148] Top shape: 8 4096 87 87 (248020992)
I0711 12:43:45.394287 30142 net.cpp:156] Memory required for data: 6374948864
I0711 12:43:45.394292 30142 layer_factory.hpp:77] Creating layer drop7_
I0711 12:43:45.394309 30142 net.cpp:91] Creating Layer drop7_
I0711 12:43:45.394316 30142 net.cpp:425] drop7_ <- fc7_
I0711 12:43:45.394330 30142 net.cpp:386] drop7_ -> fc7_ (in-place)
I0711 12:43:45.394366 30142 net.cpp:141] Setting up drop7_
I0711 12:43:45.394374 30142 net.cpp:148] Top shape: 8 4096 87 87 (248020992)
I0711 12:43:45.394377 30142 net.cpp:156] Memory required for data: 7367032832
I0711 12:43:45.394381 30142 layer_factory.hpp:77] Creating layer score_fr
I0711 12:43:45.394408 30142 net.cpp:91] Creating Layer score_fr
I0711 12:43:45.394415 30142 net.cpp:425] score_fr <- fc7_
I0711 12:43:45.394433 30142 net.cpp:399] score_fr -> score_fr
I0711 12:43:45.396375 30142 cudnn_conv_layer.cpp:194] Reallocating workspace storage: 136260
I0711 12:43:45.396399 30142 net.cpp:141] Setting up score_fr
I0711 12:43:45.396409 30142 net.cpp:148] Top shape: 8 6 87 87 (363312)
I0711 12:43:45.396411 30142 net.cpp:156] Memory required for data: 7368486080
I0711 12:43:45.396430 30142 layer_factory.hpp:77] Creating layer upscore2
I0711 12:43:45.396450 30142 net.cpp:91] Creating Layer upscore2
I0711 12:43:45.396458 30142 net.cpp:425] upscore2 <- score_fr
I0711 12:43:45.396476 30142 net.cpp:399] upscore2 -> upscore2
I0711 12:43:45.396683 30142 net.cpp:141] Setting up upscore2
I0711 12:43:45.396697 30142 net.cpp:148] Top shape: 8 6 88 88 (371712)
I0711 12:43:45.396699 30142 net.cpp:156] Memory required for data: 7369972928
I0711 12:43:45.396725 30142 layer_factory.hpp:77] Creating layer upscore2_upscore2_0_split
I0711 12:43:45.396739 30142 net.cpp:91] Creating Layer upscore2_upscore2_0_split
I0711 12:43:45.396745 30142 net.cpp:425] upscore2_upscore2_0_split <- upscore2
I0711 12:43:45.396759 30142 net.cpp:399] upscore2_upscore2_0_split -> upscore2_upscore2_0_split_0
I0711 12:43:45.396773 30142 net.cpp:399] upscore2_upscore2_0_split -> upscore2_upscore2_0_split_1
I0711 12:43:45.396818 30142 net.cpp:141] Setting up upscore2_upscore2_0_split
I0711 12:43:45.396828 30142 net.cpp:148] Top shape: 8 6 88 88 (371712)
I0711 12:43:45.396832 30142 net.cpp:148] Top shape: 8 6 88 88 (371712)
I0711 12:43:45.396836 30142 net.cpp:156] Memory required for data: 7372946624
I0711 12:43:45.396841 30142 layer_factory.hpp:77] Creating layer score_pool2
I0711 12:43:45.396859 30142 net.cpp:91] Creating Layer score_pool2
I0711 12:43:45.396867 30142 net.cpp:425] score_pool2 <- norm2_norm2_0_split_1
I0711 12:43:45.396881 30142 net.cpp:399] score_pool2 -> score_pool2
I0711 12:43:45.397765 30142 cudnn_conv_layer.cpp:194] Reallocating workspace storage: 165600
I0711 12:43:45.397789 30142 net.cpp:141] Setting up score_pool2
I0711 12:43:45.397797 30142 net.cpp:148] Top shape: 8 6 94 94 (424128)
I0711 12:43:45.397800 30142 net.cpp:156] Memory required for data: 7374643136
I0711 12:43:45.397814 30142 layer_factory.hpp:77] Creating layer score_pool2c
I0711 12:43:45.397831 30142 net.cpp:91] Creating Layer score_pool2c
I0711 12:43:45.397846 30142 net.cpp:425] score_pool2c <- score_pool2
I0711 12:43:45.397871 30142 net.cpp:425] score_pool2c <- upscore2_upscore2_0_split_0
I0711 12:43:45.397882 30142 net.cpp:399] score_pool2c -> score_pool2c
I0711 12:43:45.397938 30142 net.cpp:141] Setting up score_pool2c
I0711 12:43:45.397948 30142 net.cpp:148] Top shape: 8 6 88 88 (371712)
I0711 12:43:45.397951 30142 net.cpp:156] Memory required for data: 7376129984
I0711 12:43:45.397956 30142 layer_factory.hpp:77] Creating layer fuse_pool2
I0711 12:43:45.397974 30142 net.cpp:91] Creating Layer fuse_pool2
I0711 12:43:45.397979 30142 net.cpp:425] fuse_pool2 <- upscore2_upscore2_0_split_1
I0711 12:43:45.397990 30142 net.cpp:425] fuse_pool2 <- score_pool2c
I0711 12:43:45.398002 30142 net.cpp:399] fuse_pool2 -> fuse_pool2
I0711 12:43:45.398057 30142 net.cpp:141] Setting up fuse_pool2
I0711 12:43:45.398069 30142 net.cpp:148] Top shape: 8 6 88 88 (371712)
I0711 12:43:45.398072 30142 net.cpp:156] Memory required for data: 7377616832
I0711 12:43:45.398077 30142 layer_factory.hpp:77] Creating layer upscore8
I0711 12:43:45.398092 30142 net.cpp:91] Creating Layer upscore8
I0711 12:43:45.398098 30142 net.cpp:425] upscore8 <- fuse_pool2
I0711 12:43:45.398114 30142 net.cpp:399] upscore8 -> upscore8
I0711 12:43:45.398722 30142 net.cpp:141] Setting up upscore8
I0711 12:43:45.398735 30142 net.cpp:148] Top shape: 8 6 712 712 (24333312)
I0711 12:43:45.398737 30142 net.cpp:156] Memory required for data: 7474950080
I0711 12:43:45.398747 30142 layer_factory.hpp:77] Creating layer score
I0711 12:43:45.398761 30142 net.cpp:91] Creating Layer score
I0711 12:43:45.398768 30142 net.cpp:425] score <- upscore8
I0711 12:43:45.398779 30142 net.cpp:425] score <- data_data_0_split_1
I0711 12:43:45.398789 30142 net.cpp:399] score -> score
I0711 12:43:45.398828 30142 net.cpp:141] Setting up score
I0711 12:43:45.398838 30142 net.cpp:148] Top shape: 8 6 576 576 (15925248)
I0711 12:43:45.398840 30142 net.cpp:156] Memory required for data: 7538651072
I0711 12:43:45.398845 30142 layer_factory.hpp:77] Creating layer loss_
I0711 12:43:45.398870 30142 net.cpp:91] Creating Layer loss_
I0711 12:43:45.398879 30142 net.cpp:425] loss_ <- score
I0711 12:43:45.398888 30142 net.cpp:425] loss_ <- label
I0711 12:43:45.398901 30142 net.cpp:399] loss_ -> loss_
I0711 12:43:45.398923 30142 layer_factory.hpp:77] Creating layer loss_
…
