…
base_lr: 0.1
display: 1
max_iter: 100000
lr_policy: "fixed"
momentum: 0.9
weight_decay: 0.0005
snapshot: 4000
snapshot_prefix: "fcn"
device_id: 1
iter_size: 1
I0707 17:06:48.863940 28283 solver.cpp:81] Creating training net from train_net file: train.prototxt
I0707 17:06:48.864946 28283 net.cpp:49] Initializing net from parameters: 
name: "FCN32AlexNet"
state {
  phase: TRAIN
}
layer {
  name: "data"
  type: "ROOTData"
  top: "data"
  top: "label"
  root_data_param {
    batch_size: 32
    filler_config: "train_filler.cfg"
    filler_name: "Train"
  }
}
layer {
  name: "conv1"
  type: "Convolution"
  bottom: "data"
  top: "conv1"
  convolution_param {
    num_output: 96
    pad: 100
    kernel_size: 11
    group: 1
    stride: 4
  }
}
layer {
  name: "relu1"
  type: "ReLU"
  bottom: "conv1"
  top: "conv1"
}
layer {
  name: "pool1"
  type: "Pooling"
  bottom: "conv1"
  top: "pool1"
  pooling_param {
    pool: MAX
    kernel_size: 3
    stride: 2
  }
}
layer {
  name: "norm1"
  type: "LRN"
  bottom: "pool1"
  top: "norm1"
  lrn_param {
    local_size: 5
    alpha: 0.0001
    beta: 0.75
  }
}
layer {
  name: "conv2"
  type: "Convolution"
  bottom: "norm1"
  top: "conv2"
  convolution_param {
    num_output: 256
    pad: 2
    kernel_size: 5
    group: 2
    stride: 1
  }
}
layer {
  name: "relu2"
  type: "ReLU"
  bottom: "conv2"
  top: "conv2"
}
layer {
  name: "pool2"
  type: "Pooling"
  bottom: "conv2"
  top: "pool2"
  pooling_param {
    pool: MAX
    kernel_size: 3
    stride: 2
  }
}
layer {
  name: "norm2"
  type: "LRN"
  bottom: "pool2"
  top: "norm2"
  lrn_param {
    local_size: 5
    alpha: 0.0001
    beta: 0.75
  }
}
layer {
  name: "conv3"
  type: "Convolution"
  bottom: "norm2"
  top: "conv3"
  convolution_param {
    num_output: 384
    pad: 1
    kernel_size: 3
    group: 1
    stride: 1
  }
}
layer {
  name: "relu3"
  type: "ReLU"
  bottom: "conv3"
  top: "conv3"
}
layer {
  name: "conv4"
  type: "Convolution"
  bottom: "conv3"
  top: "conv4"
  convolution_param {
    num_output: 384
    pad: 1
    kernel_size: 3
    group: 2
    stride: 1
  }
}
layer {
  name: "relu4"
  type: "ReLU"
  bottom: "conv4"
  top: "conv4"
}
layer {
  name: "pool5"
  type: "Pooling"
  bottom: "conv4"
  top: "pool5"
  pooling_param {
    pool: MAX
    kernel_size: 3
    stride: 2
  }
}
layer {
  name: "fc6_"
  type: "Convolution"
  bottom: "pool5"
  top: "fc6_"
  convolution_param {
    num_output: 4096
    pad: 0
    kernel_size: 6
    group: 1
    stride: 1
    weight_filler {
      type: "xavier"
    }
  }
}
layer {
  name: "relu6_"
  type: "ReLU"
  bottom: "fc6_"
  top: "fc6_"
}
layer {
  name: "drop6_"
  type: "Dropout"
  bottom: "fc6_"
  top: "fc6_"
  dropout_param {
    dropout_ratio: 0.5
  }
}
layer {
  name: "fc7_"
  type: "Convolution"
  bottom: "fc6_"
  top: "fc7_"
  convolution_param {
    num_output: 4096
    pad: 0
    kernel_size: 1
    group: 1
    stride: 1
    weight_filler {
      type: "xavier"
    }
  }
}
layer {
  name: "relu7_"
  type: "ReLU"
  bottom: "fc7_"
  top: "fc7_"
}
layer {
  name: "drop7_"
  type: "Dropout"
  bottom: "fc7_"
  top: "fc7_"
  dropout_param {
    dropout_ratio: 0.5
  }
}
layer {
  name: "score_fr"
  type: "Convolution"
  bottom: "fc7_"
  top: "score_fr"
  param {
    lr_mult: 1
    decay_mult: 1
  }
  param {
    lr_mult: 2
    decay_mult: 0
  }
  convolution_param {
    num_output: 6
    pad: 0
    kernel_size: 1
    weight_filler {
      type: "xavier"
    }
  }
}
layer {
  name: "upscore"
  type: "Deconvolution"
  bottom: "score_fr"
  top: "upscore"
  param {
    lr_mult: 1
    decay_mult: 1
  }
  convolution_param {
    num_output: 6
    bias_term: false
    kernel_size: 63
    stride: 32
    weight_filler {
      type: "xavier"
    }
  }
}
layer {
  name: "score"
  type: "Crop"
  bottom: "upscore"
  bottom: "data"
  top: "score"
  crop_param {
    axis: 2
    offset: 18
  }
}
layer {
  name: "loss_"
  type: "SoftmaxWithLoss"
  bottom: "score"
  bottom: "label"
  top: "loss_"
  loss_param {
    normalize: true
  }
}
I0707 17:06:48.865514 28283 layer_factory.hpp:77] Creating layer data
I0707 17:06:48.865571 28283 net.cpp:91] Creating Layer data
I0707 17:06:48.865591 28283 net.cpp:399] data -> data
I0707 17:06:48.865731 28283 net.cpp:399] data -> label
I0707 17:06:50.143651 28283 heproot.cpp:19] Queuing data... (1 sec.)
I0707 17:06:51.422637 28283 heproot.cpp:19] Queuing data... (2 sec.)
I0707 17:06:51.729013 28283 net.cpp:141] Setting up data
I0707 17:06:51.729079 28283 net.cpp:148] Top shape: 32 1 576 576 (10616832)
I0707 17:06:51.729094 28283 net.cpp:148] Top shape: 32 1 576 576 (10616832)
I0707 17:06:51.729100 28283 net.cpp:156] Memory required for data: 84934656
I0707 17:06:51.729132 28283 layer_factory.hpp:77] Creating layer data_data_0_split
I0707 17:06:51.729187 28283 net.cpp:91] Creating Layer data_data_0_split
I0707 17:06:51.729212 28283 net.cpp:425] data_data_0_split <- data
I0707 17:06:51.729264 28283 net.cpp:399] data_data_0_split -> data_data_0_split_0
I0707 17:06:51.729313 28283 net.cpp:399] data_data_0_split -> data_data_0_split_1
I0707 17:06:51.729385 28283 net.cpp:141] Setting up data_data_0_split
I0707 17:06:51.729401 28283 net.cpp:148] Top shape: 32 1 576 576 (10616832)
I0707 17:06:51.729416 28283 net.cpp:148] Top shape: 32 1 576 576 (10616832)
I0707 17:06:51.729423 28283 net.cpp:156] Memory required for data: 169869312
I0707 17:06:51.729430 28283 layer_factory.hpp:77] Creating layer conv1
I0707 17:06:51.729481 28283 net.cpp:91] Creating Layer conv1
I0707 17:06:51.729496 28283 net.cpp:425] conv1 <- data_data_0_split_0
I0707 17:06:51.729521 28283 net.cpp:399] conv1 -> conv1
I0707 17:06:51.970844 28283 cudnn_conv_layer.cpp:194] Reallocating workspace storage: 1452
I0707 17:06:51.971099 28283 net.cpp:141] Setting up conv1
I0707 17:06:51.971141 28283 net.cpp:148] Top shape: 32 96 192 192 (113246208)
I0707 17:06:51.971154 28283 net.cpp:156] Memory required for data: 622854144
I0707 17:06:51.971277 28283 layer_factory.hpp:77] Creating layer relu1
I0707 17:06:51.971324 28283 net.cpp:91] Creating Layer relu1
I0707 17:06:51.971343 28283 net.cpp:425] relu1 <- conv1
I0707 17:06:51.971374 28283 net.cpp:386] relu1 -> conv1 (in-place)
I0707 17:06:51.971765 28283 net.cpp:141] Setting up relu1
I0707 17:06:51.971783 28283 net.cpp:148] Top shape: 32 96 192 192 (113246208)
I0707 17:06:51.971789 28283 net.cpp:156] Memory required for data: 1075838976
I0707 17:06:51.971801 28283 layer_factory.hpp:77] Creating layer pool1
I0707 17:06:51.971843 28283 net.cpp:91] Creating Layer pool1
I0707 17:06:51.971855 28283 net.cpp:425] pool1 <- conv1
I0707 17:06:51.971880 28283 net.cpp:399] pool1 -> pool1
I0707 17:06:51.971992 28283 net.cpp:141] Setting up pool1
I0707 17:06:51.972007 28283 net.cpp:148] Top shape: 32 96 96 96 (28311552)
I0707 17:06:51.972012 28283 net.cpp:156] Memory required for data: 1189085184
I0707 17:06:51.972020 28283 layer_factory.hpp:77] Creating layer norm1
I0707 17:06:51.972054 28283 net.cpp:91] Creating Layer norm1
I0707 17:06:51.972064 28283 net.cpp:425] norm1 <- pool1
I0707 17:06:51.972084 28283 net.cpp:399] norm1 -> norm1
I0707 17:06:51.972321 28283 net.cpp:141] Setting up norm1
I0707 17:06:51.972338 28283 net.cpp:148] Top shape: 32 96 96 96 (28311552)
I0707 17:06:51.972344 28283 net.cpp:156] Memory required for data: 1302331392
I0707 17:06:51.972353 28283 layer_factory.hpp:77] Creating layer conv2
I0707 17:06:51.972383 28283 net.cpp:91] Creating Layer conv2
I0707 17:06:51.972393 28283 net.cpp:425] conv2 <- norm1
I0707 17:06:51.972415 28283 net.cpp:399] conv2 -> conv2
I0707 17:06:51.975670 28283 cudnn_conv_layer.cpp:194] Reallocating workspace storage: 344880
I0707 17:06:51.975823 28283 net.cpp:141] Setting up conv2
I0707 17:06:51.975847 28283 net.cpp:148] Top shape: 32 256 96 96 (75497472)
I0707 17:06:51.975853 28283 net.cpp:156] Memory required for data: 1604321280
I0707 17:06:51.975910 28283 layer_factory.hpp:77] Creating layer relu2
I0707 17:06:51.975944 28283 net.cpp:91] Creating Layer relu2
I0707 17:06:51.975970 28283 net.cpp:425] relu2 <- conv2
I0707 17:06:51.976016 28283 net.cpp:386] relu2 -> conv2 (in-place)
I0707 17:06:51.976205 28283 net.cpp:141] Setting up relu2
I0707 17:06:51.976218 28283 net.cpp:148] Top shape: 32 256 96 96 (75497472)
I0707 17:06:51.976223 28283 net.cpp:156] Memory required for data: 1906311168
I0707 17:06:51.976230 28283 layer_factory.hpp:77] Creating layer pool2
I0707 17:06:51.976264 28283 net.cpp:91] Creating Layer pool2
I0707 17:06:51.976274 28283 net.cpp:425] pool2 <- conv2
I0707 17:06:51.976295 28283 net.cpp:399] pool2 -> pool2
I0707 17:06:51.976373 28283 net.cpp:141] Setting up pool2
I0707 17:06:51.976387 28283 net.cpp:148] Top shape: 32 256 48 48 (18874368)
I0707 17:06:51.976392 28283 net.cpp:156] Memory required for data: 1981808640
I0707 17:06:51.976402 28283 layer_factory.hpp:77] Creating layer norm2
I0707 17:06:51.976426 28283 net.cpp:91] Creating Layer norm2
I0707 17:06:51.976436 28283 net.cpp:425] norm2 <- pool2
I0707 17:06:51.976455 28283 net.cpp:399] norm2 -> norm2
I0707 17:06:51.976809 28283 net.cpp:141] Setting up norm2
I0707 17:06:51.976826 28283 net.cpp:148] Top shape: 32 256 48 48 (18874368)
I0707 17:06:51.976833 28283 net.cpp:156] Memory required for data: 2057306112
I0707 17:06:51.976840 28283 layer_factory.hpp:77] Creating layer conv3
I0707 17:06:51.976868 28283 net.cpp:91] Creating Layer conv3
I0707 17:06:51.976878 28283 net.cpp:425] conv3 <- norm2
I0707 17:06:51.976899 28283 net.cpp:399] conv3 -> conv3
I0707 17:06:51.982353 28283 cudnn_conv_layer.cpp:194] Reallocating workspace storage: 48024
I0707 17:06:51.982409 28283 net.cpp:141] Setting up conv3
I0707 17:06:51.982430 28283 net.cpp:148] Top shape: 32 384 48 48 (28311552)
I0707 17:06:51.982436 28283 net.cpp:156] Memory required for data: 2170552320
I0707 17:06:51.982497 28283 layer_factory.hpp:77] Creating layer relu3
I0707 17:06:51.982537 28283 net.cpp:91] Creating Layer relu3
I0707 17:06:51.982553 28283 net.cpp:425] relu3 <- conv3
I0707 17:06:51.982580 28283 net.cpp:386] relu3 -> conv3 (in-place)
I0707 17:06:51.982791 28283 net.cpp:141] Setting up relu3
I0707 17:06:51.982805 28283 net.cpp:148] Top shape: 32 384 48 48 (28311552)
I0707 17:06:51.982810 28283 net.cpp:156] Memory required for data: 2283798528
I0707 17:06:51.982818 28283 layer_factory.hpp:77] Creating layer conv4
I0707 17:06:51.982848 28283 net.cpp:91] Creating Layer conv4
I0707 17:06:51.982857 28283 net.cpp:425] conv4 <- conv3
I0707 17:06:51.982877 28283 net.cpp:399] conv4 -> conv4
I0707 17:06:51.987260 28283 cudnn_conv_layer.cpp:194] Reallocating workspace storage: 96048
I0707 17:06:51.987454 28283 net.cpp:141] Setting up conv4
I0707 17:06:51.987479 28283 net.cpp:148] Top shape: 32 384 48 48 (28311552)
I0707 17:06:51.987485 28283 net.cpp:156] Memory required for data: 2397044736
I0707 17:06:51.987527 28283 layer_factory.hpp:77] Creating layer relu4
I0707 17:06:51.987563 28283 net.cpp:91] Creating Layer relu4
I0707 17:06:51.987579 28283 net.cpp:425] relu4 <- conv4
I0707 17:06:51.987610 28283 net.cpp:386] relu4 -> conv4 (in-place)
I0707 17:06:51.987808 28283 net.cpp:141] Setting up relu4
I0707 17:06:51.987821 28283 net.cpp:148] Top shape: 32 384 48 48 (28311552)
I0707 17:06:51.987826 28283 net.cpp:156] Memory required for data: 2510290944
I0707 17:06:51.987834 28283 layer_factory.hpp:77] Creating layer pool5
I0707 17:06:51.987857 28283 net.cpp:91] Creating Layer pool5
I0707 17:06:51.987866 28283 net.cpp:425] pool5 <- conv4
I0707 17:06:51.987886 28283 net.cpp:399] pool5 -> pool5
I0707 17:06:51.987962 28283 net.cpp:141] Setting up pool5
I0707 17:06:51.987977 28283 net.cpp:148] Top shape: 32 384 24 24 (7077888)
I0707 17:06:51.987982 28283 net.cpp:156] Memory required for data: 2538602496
I0707 17:06:51.987988 28283 layer_factory.hpp:77] Creating layer fc6_
I0707 17:06:51.988023 28283 net.cpp:91] Creating Layer fc6_
I0707 17:06:51.988034 28283 net.cpp:425] fc6_ <- pool5
I0707 17:06:51.988052 28283 net.cpp:399] fc6_ -> fc6_
I0707 17:06:55.582092 28283 cudnn_conv_layer.cpp:194] Reallocating workspace storage: 60660
I0707 17:06:55.582156 28283 net.cpp:141] Setting up fc6_
I0707 17:06:55.582188 28283 net.cpp:148] Top shape: 32 4096 19 19 (47316992)
I0707 17:06:55.582195 28283 net.cpp:156] Memory required for data: 2727870464
I0707 17:06:55.582254 28283 layer_factory.hpp:77] Creating layer relu6_
I0707 17:06:55.582295 28283 net.cpp:91] Creating Layer relu6_
I0707 17:06:55.582309 28283 net.cpp:425] relu6_ <- fc6_
I0707 17:06:55.582335 28283 net.cpp:386] relu6_ -> fc6_ (in-place)
I0707 17:06:55.582775 28283 net.cpp:141] Setting up relu6_
I0707 17:06:55.582792 28283 net.cpp:148] Top shape: 32 4096 19 19 (47316992)
I0707 17:06:55.582798 28283 net.cpp:156] Memory required for data: 2917138432
I0707 17:06:55.582809 28283 layer_factory.hpp:77] Creating layer drop6_
I0707 17:06:55.582836 28283 net.cpp:91] Creating Layer drop6_
I0707 17:06:55.582845 28283 net.cpp:425] drop6_ <- fc6_
I0707 17:06:55.582864 28283 net.cpp:386] drop6_ -> fc6_ (in-place)
I0707 17:06:55.582916 28283 net.cpp:141] Setting up drop6_
I0707 17:06:55.582926 28283 net.cpp:148] Top shape: 32 4096 19 19 (47316992)
I0707 17:06:55.582931 28283 net.cpp:156] Memory required for data: 3106406400
I0707 17:06:55.582938 28283 layer_factory.hpp:77] Creating layer fc7_
I0707 17:06:55.582970 28283 net.cpp:91] Creating Layer fc7_
I0707 17:06:55.582979 28283 net.cpp:425] fc7_ <- fc6_
I0707 17:06:55.582999 28283 net.cpp:399] fc7_ -> fc7_
I0707 17:06:56.792268 28283 cudnn_conv_layer.cpp:194] Reallocating workspace storage: 19500
I0707 17:06:56.792321 28283 net.cpp:141] Setting up fc7_
I0707 17:06:56.792341 28283 net.cpp:148] Top shape: 32 4096 19 19 (47316992)
I0707 17:06:56.792347 28283 net.cpp:156] Memory required for data: 3295674368
I0707 17:06:56.792378 28283 layer_factory.hpp:77] Creating layer relu7_
I0707 17:06:56.792412 28283 net.cpp:91] Creating Layer relu7_
I0707 17:06:56.792425 28283 net.cpp:425] relu7_ <- fc7_
I0707 17:06:56.792451 28283 net.cpp:386] relu7_ -> fc7_ (in-place)
I0707 17:06:56.792759 28283 net.cpp:141] Setting up relu7_
I0707 17:06:56.792775 28283 net.cpp:148] Top shape: 32 4096 19 19 (47316992)
I0707 17:06:56.792780 28283 net.cpp:156] Memory required for data: 3484942336
I0707 17:06:56.792788 28283 layer_factory.hpp:77] Creating layer drop7_
I0707 17:06:56.792809 28283 net.cpp:91] Creating Layer drop7_
I0707 17:06:56.792819 28283 net.cpp:425] drop7_ <- fc7_
I0707 17:06:56.792836 28283 net.cpp:386] drop7_ -> fc7_ (in-place)
I0707 17:06:56.792879 28283 net.cpp:141] Setting up drop7_
I0707 17:06:56.792891 28283 net.cpp:148] Top shape: 32 4096 19 19 (47316992)
I0707 17:06:56.792894 28283 net.cpp:156] Memory required for data: 3674210304
I0707 17:06:56.792901 28283 layer_factory.hpp:77] Creating layer score_fr
I0707 17:06:56.792932 28283 net.cpp:91] Creating Layer score_fr
I0707 17:06:56.792942 28283 net.cpp:425] score_fr <- fc7_
I0707 17:06:56.792961 28283 net.cpp:399] score_fr -> score_fr
I0707 17:06:56.795684 28283 cudnn_conv_layer.cpp:194] Reallocating workspace storage: 7212
I0707 17:06:56.795825 28283 net.cpp:141] Setting up score_fr
I0707 17:06:56.795846 28283 net.cpp:148] Top shape: 32 6 19 19 (69312)
I0707 17:06:56.795852 28283 net.cpp:156] Memory required for data: 3674487552
I0707 17:06:56.795884 28283 layer_factory.hpp:77] Creating layer upscore
I0707 17:06:56.795928 28283 net.cpp:91] Creating Layer upscore
I0707 17:06:56.795941 28283 net.cpp:425] upscore <- score_fr
I0707 17:06:56.795967 28283 net.cpp:399] upscore -> upscore
I0707 17:06:56.806553 28283 net.cpp:141] Setting up upscore
I0707 17:06:56.806605 28283 net.cpp:148] Top shape: 32 6 639 639 (78397632)
I0707 17:06:56.806612 28283 net.cpp:156] Memory required for data: 3988078080
I0707 17:06:56.806643 28283 layer_factory.hpp:77] Creating layer score
I0707 17:06:56.806685 28283 net.cpp:91] Creating Layer score
I0707 17:06:56.806701 28283 net.cpp:425] score <- upscore
I0707 17:06:56.806725 28283 net.cpp:425] score <- data_data_0_split_1
I0707 17:06:56.806741 28283 net.cpp:399] score -> score
I0707 17:06:56.806816 28283 net.cpp:141] Setting up score
I0707 17:06:56.806830 28283 net.cpp:148] Top shape: 32 6 576 576 (63700992)
I0707 17:06:56.806846 28283 net.cpp:156] Memory required for data: 4242882048
I0707 17:06:56.806865 28283 layer_factory.hpp:77] Creating layer loss_
I0707 17:06:56.806888 28283 net.cpp:91] Creating Layer loss_
I0707 17:06:56.806897 28283 net.cpp:425] loss_ <- score
I0707 17:06:56.806911 28283 net.cpp:425] loss_ <- label
I0707 17:06:56.806928 28283 net.cpp:399] loss_ -> loss_
…
